Prune/pts/origin_model.pth (torch, 138351 bytes, 8 tensors)

conv1.weight f4 [16, 3, 3, 3]
000000 12 4c a6 3d a1 ae 8f bd 94 68 d9 3d 4e 9c 0d 3d
       0.08119978 -0.0701573 0.1061565 0.034572892
000010 dc 05 31 bd c6 c0 4a be e7 3f 8c bd ba e4 94 bd
       -0.04321848 -0.198001 -0.06848126 -0.07270189
000020 14 6d a2 bd 6b fe ee bd e1 1e 48 be dc e4 09 3e
       -0.07930961 -0.1166962 -0.1954303 0.13466209
000030 60 8d 0a be 29 3e c6 bd 91 6d 05 be 32 52 43 bd
       -0.13530493 -0.09679825 -0.13030078 -0.04768581
000040 3d 86 2c 3e 5c e4 bc 3b 80 4c 31 3e f6 55 7a 3e
       0.16848083 0.0057645272 0.17314339 0.24446854
000050 fc 6b 72 bd c9 f9 40 bd 94 ad b4 3d b1 63 1a 3e
       -0.059185013 -0.047113214 0.0882217 0.15077092
000060 07 58 67 3e 17 3e 5a 3e 4e fd 0f be 51 43 1a bd
       0.22592174 0.21312748 -0.14061472 -0.037661854
000070 d6 33 e7 bd 71 89 0f 3e 83 2f 21 be f2 5b b7 3d
       -0.11289184 0.14017273 -0.1574078 0.08953084
000080 b7 20 89 3e 32 98 1b be 11 3f 7f 3d 10 e6 3e 3d
       0.26782772 -0.15194777 0.062316004 0.046606123
000090 97 6f 39 be 3b 8e cf 3d 56 c9 8f bd d9 56 86 be
       -0.18108974 0.1013455 -0.07020824 -0.26238135
0000a0 16 75 6c 3e 72 72 8c 3e 31 a8 93 be 29 75 cb bd
       0.2309154 0.27431065 -0.28839257 -0.09934456
0000b0 8a 2c 64 3d f9 b9 bb 3d 86 62 ef 3b e6 ae be 3d
       0.05570654 0.09166331 0.007305446 0.09310703
0000c0 0f b4 81 bd 56 ba b5 bd 38 02 34 3e 6b b2 9d be
       -0.063331716 -0.088734314 0.17578971 -0.30800185
0000d0 24 41 e9 3d 5a ad 1f 3d 38 ce 96 bd 39 3d 5a bd
       0.11389378 0.03898368 -0.07363552 -0.053281043
0000e0 96 c1 b0 bd d1 a8 9d 3b d1 9c 2f 3b 62 d0 86 bd
       -0.086306736 0.0048113842 0.002679635 -0.065827146
0000f0 e1 f2 28 3e 1b 8f 51 3e ae ef 27 3c 1d 2e ed bd
       0.16498901 0.20464747 0.010250015 -0.11581061
000100 32 f1 47 3e 94 54 22 bd 39 e5 04 bd 8b 5a 81 3e
       0.19525602 -0.03963144 -0.032445166 0.2526439
000110 07 3e 2e 3e d9 34 31 3e 5d 21 57 3e 17 d0 4c 3e
       0.17015849 0.17305316 0.21008821 0.20001255
000120 72 c7 9d bd 02 e8 c2 bd 34 bc 89 be bf 1b 9f bd
       -0.07704057 -0.09516908 -0.269014 -0.07768964
000130 dd ae 54 3d d2 37 15 3e b8 64 b7 3d 16 fd de 3c
       0.051924575 0.14572075 0.089547575 0.02722029
000140 06 49 a2 3d e4 86 02 3e 8a 05 2d 3e de 1f d6 bd
       0.07924084 0.12746769 0.16896644 -0.10455297
000150 aa e3 74 bd 03 37 24 3e 89 cb b1 bd 3a 4d 12 3e
       -0.05978743 0.1603661 -0.086813994 0.14287272
000160 58 22 ce bd 83 4d 1f 3e 2c a5 13 3e 45 5b e4 bc
       -0.10065144 0.15556912 0.14418477 -0.027875552
000170 06 9e 33 3e 18 a1 42 be b4 a7 31 bd fc 90 33 3e
       0.1754075 -0.19006765 -0.043372825 0.17535776
000180 1e e8 ce bd 3d 51 bb bc 2a d0 5e 3e 2d 2b 34 be
       -0.101028666 -0.022865886 0.21759096 -0.17594595
000190 b1 95 17 be 0f eb a7 3d 5c a6 06 be f4 2b b6 bd
       -0.14803196 0.08199131 -0.13149399 -0.08895102
0001a0 5b ee a1 3d 19 03 d0 bd 55 2b 9b bd 4e 4f b0 3b
       0.07906791 -0.10156841 -0.07576624 0.0053805476
0001b0 19 67 60 3e 22 3b 80 3e 79 9e df bd 2e dc 95 bc
       0.21914329 0.25045115 -0.10918898 -0.018293466
0001c0 32 87 96 3d ca 23 4f 3e 07 a1 ca bc ba ae 4d be
       0.07350005 0.20228496 -0.024734987 -0.20086184
0001d0 f0 14 66 be c0 1a 00 3e 6c 17 9d 3c c5 82 35 3e
       -0.22468925 0.12510204 0.019176207 0.17725666
0001e0 ae 01 70 bd 01 d1 c3 3b 9c 4e 16 3e ec ee c3 bd
       -0.058595352 0.005975843 0.14678425 -0.09567055
0001f0 9d 4e 71 be 42 08 60 be 85 df ed bd 1c c1 47 3e
       -0.23565145 -0.2187815 -0.116148986 0.19507259
000200 21 6f 2b 3c bb 20 5e bc 73 fa 2c 3d 7d db 3c 3e
       0.010463507 -0.013557608 0.042231034 0.18443103
000210 56 83 bc bd 70 9f 7c be 5d b2 97 3c a4 d4 83 3e
       -0.09204738 -0.24670196 0.018517667 0.2574817
000220 e8 97 87 3d d4 4a 80 3e 02 1c 07 be ea 74 fd 3c
       0.06620771 0.2505709 -0.13194278 0.030939538
000230 cf 93 44 be 30 1b 35 be 9d 7a fe bd a6 a0 a8 bd
       -0.1919701 -0.17686152 -0.124257304 -0.08233766
000240 5a 70 8f 3d 38 00 47 3d dc 83 4f 3e 46 30 4c be
       0.07003851 0.048584193 0.20265144 -0.1994029
000250 7d 23 59 be 65 5c 1d 3d 22 ea 9a bd 21 c6 a4 3d
       -0.21204944 0.038418192 -0.075641885 0.080456026
000260 60 41 c0 3c 55 b9 e3 b8 97 7c 17 be 6d 41 35 3e
       0.023468673 -0.00010858724 -0.14793621 0.17700739
000270 c0 2a d7 3c 50 23 e3 3c 90 4c 10 be df 2a cf 3d
       0.026265502 0.0277268 -0.14091706 0.10115599
000280 16 84 a1 3d c9 e0 0b be 11 54 f8 bd 3e c6 c6 bd
       0.078865215 -0.13659967 -0.121254094 -0.097057804
000290 50 a9 c3 3d 6f 94 02 be 27 9d b7 3d 39 ab ef bd
       0.09553778 -0.12751935 0.08965521 -0.1170258
0002a0 d4 e6 f4 3d 88 f5 8c 3c 3f a4 9d 3d bc a8 7b bd
       0.119580895 0.017206922 0.07697343 -0.061440215
0002b0 c9 0a 20 be 22 42 b0 3d 6f f8 86 bd 8e 41 40 3e
       -0.15629114 0.08606364 -0.06590354 0.18775007
0002c0 4c 7a b6 3d 0f f1 28 bd d3 92 05 3e 34 78 0c 3c
       0.08910045 -0.041245516 0.1304429 0.0085735805
0002d0 b3 67 0a 3e 27 1e 0b 3e e5 06 1c 3e 51 12 e1 3d
       0.1351612 0.13585721 0.15237005 0.10989822
0002e0 5b 0f 38 3e cf 5a 1a 3e b2 9c 88 bd 19 2f 82 3d
       0.17974608 0.15073703 -0.06670512 0.063566394
0002f0 d2 40 2a 3e 71 7a df bd cf 37 d8 3d 64 18 6c be
       0.1662629 -0.10912026 0.1055752 -0.2305618
000300 19 cd e6 3d 7b a4 94 3c d8 ab 0b be d4 dc 08 be
       0.11269588 0.018144837 -0.13639772 -0.13365489
000310 aa 89 75 be ed 3e b9 bd 23 75 13 be 11 27 36 be
       -0.23978296 -0.09045205 -0.14400153 -0.1778834
000320 d9 94 ba bc e2 18 fd 3d b3 5d 28 3e 05 ea 09 3e
       -0.022776054 0.12358262 0.16441993 0.13468178
000330 ce 59 f8 bd ae b1 ba bc f9 66 23 3d 2f 90 09 3e
       -0.12126504 -0.022789802 0.039893124 0.13433908
000340 eb 39 69 3e 4f 52 1c 3e 3f 1a 1f bd 6a f8 3d 3e
       0.22776 0.15265773 -0.03884339 0.18551794
000350 89 c0 12 3e 16 2a 35 3d a2 47 41 3b c0 a7 da bd
       0.14331259 0.04422959 0.002949216 -0.10676527
000360 33 bf 05 be d7 b8 e7 bd 94 01 86 3c fa f6 ac bd
       -0.13061218 -0.11314552 0.016358174 -0.084455445
000370 a3 08 3b be f1 a7 c3 3c 9c 28 d9 3d 54 a2 32 be
       -0.18265013 0.023883792 0.10603449 -0.17444736
000380 39 1f 3e 3d 81 27 1d bd 90 89 34 bd 1a 5d 98 38
       0.046416495 -0.038367752 -0.044076502 7.265266e-05
000390 ca 05 28 be d9 a2 60 3e da 94 85 3c 05 cf 3e be
       -0.16408458 0.21937121 0.01630633 -0.18633659
0003a0 fe 79 13 be 6d 1d ee 3d f0 3c 9c bc cf 9c 66 3e
       -0.14402005 0.11626706 -0.019072026 0.22520755
0003b0 5c f2 0f be 48 2f 6f 3e 04 33 67 3e e7 1a 0a 3e
       -0.14057297 0.2335788 0.22578055 0.13486825
0003c0 2b e4 2b 3e 51 7a b8 3c a8 99 3b 3e 1a 30 e2 3d
       0.16786258 0.022519263 0.18320334 0.11044331
0003d0 13 ce a7 bd 25 98 4c 3e bf 7d 73 3c 6b 2d 11 bd
       -0.081936024 0.19979914 0.014861523 -0.035443705
0003e0 ea c7 de 3d 36 60 bc 3d f6 86 05 3e dc ca 9e 3d
       0.10877974 0.09198038 0.13039765 0.07753536
0003f0 88 07 8d 3d 9f 9f 78 bd f6 e8 3a be 03 0b 3e be
       0.06886202 -0.0606991 -0.1825293 -0.18558888

conv1.bias f4 [16]
000000 65 ee 66 3e c9 ab 8c bc 0b 01 2f be c7 1b c5 3c
       0.22551878 -0.017171757 -0.17090242 0.024061097
000010 7b 2c b2 bd fd 92 04 3e 9f d6 50 3e af ab ad 3d
       -0.0869989 0.12946697 0.20394371 0.08480012
000020 7c ab f7 bd 8d 0f c4 3d 23 38 96 3d b1 a9 5f 3e
       -0.12093255 0.095732786 0.07334926 0.21842076
000030 f6 f3 25 3e 98 00 5f bc e1 ad f4 bd 24 3d 98 bd
       0.16206345 -0.013610981 -0.11947227 -0.07433537

conv2.weight f4 [32, 16, 3, 3]
000000 31 4e 4f 3c 87 5d a4 bc 0a d0 b7 bc 26 1d f2 bd
       0.01265292 -0.020064129 -0.022438068 -0.11821966
000010 1b 3f d4 bd 97 ea 25 bd 61 bf cf bd 92 20 83 be
       -0.10363599 -0.040506925 -0.101439245 -0.25610787
000020 e1 82 2e be d3 14 ed 38 d2 45 8a 3c 43 3d 40 bb
       -0.17042114 0.000113049195 0.016878996 -0.002933339
000030 4a 74 22 bd c0 f3 6c 3d 9b bf 80 3d aa e5 d2 bd
       -0.039661683 0.057849646 0.06286546 -0.10297711
000040 31 32 59 3d aa 90 50 bc a6 2d 1f 3d 28 43 d1 bc
       0.053026382 -0.012729803 0.038861893 -0.025544718
000050 4c 91 6f 3c 64 4d 47 b7 ea 48 09 bd f3 25 cf bc
       0.014622044 -1.1879343e-05 -0.033516802 -0.02528665
000060 bf 79 21 bc db cb 52 3d 6d 81 1c 3d 21 a6 ba 3d
       -0.009855687 0.051463943 0.038209368 0.09113718
000070 b2 da 5c 3d 72 08 a7 3d aa ff 4a 3c ff d0 c7 3d
       0.0539195 0.08155908 0.012390057 0.0975666
000080 5a c0 76 3d 4e 7d 0b 3d c6 b6 df bc 12 c2 3a 3d
       0.060242034 0.034055047 -0.027308833 0.045595236
000090 24 74 98 3d c5 f5 a4 3c 4f 5f 6f 3c c8 b3 a1 bd
       0.07444027 0.020136723 0.014610126 -0.07895619
0000a0 ff 15 26 3d 21 5e 15 3d e9 69 ca 3c c1 c2 6e 3d
       0.04054832 0.03646672 0.024708705 0.0582912
0000b0 60 81 29 bd 88 0b d6 3d df 49 09 3d 04 a8 a4 3d
       -0.041383147 0.10451418 0.033517715 0.08039859
0000c0 60 1c cf 3b 11 41 ac 3d 21 5a a3 bd 1d 37 18 3e
       0.0063205212 0.08410848 -0.07976175 0.14864774
0000d0 97 6d d8 3d 78 9d ed 3c 21 0a fc 3c 5d 9d 80 bd
       0.105677776 0.029005751 0.030766549 -0.06280015
0000e0 6a 50 24 ba 79 63 3d 3d 99 39 8d bd 73 2c b4 3d
       -0.0006268086 0.046237443 -0.068957515 0.087975405
0000f0 21 e3 77 3d 5c 4f 99 3c 3b b4 08 bd bc 99 19 be
       0.06051934 0.0187146 -0.033375006 -0.15000051
000100 cd 78 2b be 0f cd 1d be 80 ab 93 be 8d 8b 78 be
       -0.167453 -0.15410255 -0.28841782 -0.24271984
000110 db dc 6f be f1 46 5a be b4 90 c1 be 00 3b 27 be
       -0.23424093 -0.21316124 -0.37805712 -0.163311
000120 ba 9f 48 be bc d8 c9 bd b1 0e 8a bd 5a 72 48 be
       -0.19592181 -0.09855792 -0.067410834 -0.19574872
000130 54 ba 89 be 94 57 f7 bd 94 7d 47 be 5b 5a a2 be
       -0.2689997 -0.12077251 -0.19481498 -0.3170956
000140 f5 5c 20 be 87 36 0e be 4f 07 b1 bc 18 0e fd bd
       -0.1566046 -0.13887988 -0.02160993 -0.12356204
000150 4e e4 68 bd ec e2 ad bd 00 7f 6f bd ff 33 25 be
       -0.056858353 -0.084905475 -0.058470726 -0.16133116
000160 bd 21 be bd 80 f3 d6 bc 2c c2 d6 bc c3 04 3d 3d
       -0.09283779 -0.026239157 -0.026215635 0.04614712
000170 fd 2b 8d 3d dd 9b a8 bc 0e 91 94 3d 85 ad a1 3c
       0.06893156 -0.020582134 0.072542295 0.01973606
000180 21 b4 66 3c 31 46 06 3c 9d fc d7 3c 0f 43 3b 3d
       0.014081032 0.008195446 0.026365573 0.04571825
000190 5e 02 14 bc bd 00 48 3d c0 3f bd 3d 2e 62 5e 3c
       -0.0090337675 0.04882883 0.09240675 0.013573213
0001a0 f3 bd bc 3d 5b a2 76 3d f0 f0 08 3e 34 69 f0 bb
       0.092159174 0.060213428 0.1337316 -0.00733676
0001b0 43 e4 93 bc 0a 88 89 3d 13 c0 c1 3c d1 fc a2 bc
       -0.01805318 0.067154005 0.023651158 -0.019895943
0001c0 83 a3 ad 3b 39 1b b2 3d f3 40 61 3d 7f 18 29 bd
       0.005299033 0.086965986 0.05499358 -0.041283127
0001d0 bb ce 45 3d 70 f2 63 3c de a7 b5 3d e7 94 91 bb
       0.048292857 0.013912782 0.08869909 -0.0044427994
0001e0 ac 54 01 3e 8c 4d 40 3e e8 45 0b 3e 17 00 eb 3d
       0.12629956 0.18779582 0.13600886 0.114746265
0001f0 25 3e e4 3d 86 a2 eb 3c 79 a4 d7 bc 32 3b 6f bd
       0.11144666 0.02876402 -0.026323544 -0.058406062
000200 50 83 1c be 0f 85 a3 bd 84 41 2d be 78 f6 ac bd
       -0.15284467 -0.07984363 -0.16919523 -0.08445448
000210 62 39 a6 bd de 55 06 be 77 46 ad 3c c4 0b a0 3b
       -0.08116414 -0.13118693 0.021151764 0.004884215
000220 98 9b 74 ba 76 eb 52 bd b7 b3 84 bd 72 4f d2 3d
       -0.00093310466 -0.051494084 -0.064795904 0.10269059
000230 21 7b 84 bd b3 a8 c9 3d 56 49 06 3e 01 a2 9a 3d
       -0.064687975 0.0984663 0.13113913 0.07550431
000240 8f ca ec bc 40 2b 88 bd b1 d7 9a bd bd ee f9 bb
       -0.028905181 -0.06648874 -0.07560671 -0.007627337
000250 72 1e 46 bd 2d 9d 2d 3d be f7 05 bd e5 6c 25 bd
       -0.04836888 0.042386223 -0.03270697 -0.040387053
000260 ee 20 19 3d f3 3f a7 bc 61 a2 dd bb 19 c7 94 bc
       0.03738492 -0.020416236 -0.006763742 -0.018161343
000270 16 b9 e6 bc f9 71 71 bc f1 17 24 3d 1c c2 4f 3b
       -0.028164428 -0.014736646 0.040061895 0.0031701392
000280 1c f9 c2 3d 2b 1c 48 3d af aa b8 bb e2 3f 88 3c
       0.0952017 0.048854988 -0.0056355814 0.016632024
000290 1a 30 46 3d e7 a4 88 bd 63 19 48 3d f7 05 4f bd
       0.048385717 -0.066720776 0.048852336 -0.050542798
0002a0 77 25 78 bd ba 4b 05 bb c9 75 ba 3d 8c f7 ec 3c
       -0.060582604 -0.0020339326 0.09104497 0.028926633
0002b0 2e 14 73 bd 5b dc 25 bd a6 08 93 3c 7b 6f 51 bd
       -0.059345417 -0.04049335 0.01794846 -0.051131707
0002c0 2f 42 89 3d ca 4e 52 3d dc f0 fd bc 60 b8 99 3d
       0.06702077 0.05134467 -0.03099864 0.0750587
0002d0 46 cd c7 3c be 76 a5 bc 09 99 04 3c 66 9c a0 bd
       0.024389874 -0.020198222 0.008093127 -0.07842331
0002e0 35 16 23 3c 49 da 73 bd 71 af 57 bd 0a 61 15 be
       0.009954025 -0.059534345 -0.05265755 -0.14587799
0002f0 8d 2c 84 bd f2 d0 84 3d 34 74 03 3c a7 14 b2 3d
       -0.0645381 0.06485166 0.00802331 0.08695345
000300 78 57 73 3d 7a be 43 bb 7d 24 9e bc 38 d8 82 3c
       0.05940959 -0.0029868172 -0.019304508 0.015972242
000310 32 da b2 3c d6 e7 8b 3d dc b1 85 b9 f8 f8 8a 3d
       0.02183256 0.068313286 -0.00025500252 0.06785768
000320 25 4b 3c bd e8 94 09 3d 5f fd 1c 3d ee 55 1e 3c
       -0.0459701 0.033589274 0.03832757 0.009664042
000330 07 13 80 3c ac fd e5 3c f2 4f be 3c a9 89 22 be
       0.015634073 0.028075062 0.02323148 -0.15872826
000340 1d f9 33 be 7d 59 07 be 92 39 c7 bd 79 7f 55 be
       -0.17575498 -0.13217731 -0.097277775 -0.20849408
000350 ab 70 d9 bd 83 e9 9e bc 31 98 1d be 69 e9 11 be
       -0.10617193 -0.019398456 -0.15390088 -0.14249195
000360 f9 ac 39 be 41 7d 01 be 47 3c df bd 46 e8 41 be
       -0.1813239 -0.12645437 -0.10900169 -0.18936262
000370 18 ef be bd ea 5b 17 be 13 c2 b2 bd 4b 46 19 be
       -0.09322947 -0.14781156 -0.08728423 -0.14968221
000380 77 4d ec bb 02 9f ed bb 88 a9 cc bc 61 f9 94 bc
       -0.007211383 -0.007251621 -0.024983183 -0.01818532
000390 bf b9 85 bc a7 7b 4d 3d 9f 43 4e 3d 68 90 8f 3d
       -0.016323922 0.050166752 0.050357457 0.07009965
0003a0 66 3a 2b bc 85 26 4c 3d bc 25 ad bd 38 bb 21 3d
       -0.010450935 0.049841423 -0.08454463 0.039485186
0003b0 d6 36 03 3e 50 e3 6f bc b7 f9 64 3d 3e 53 cd 3c
       0.12813887 -0.014641598 0.05590221 0.025064107
0003c0 e9 6e be 3c 2a 6f 96 3d 68 bd a8 3d a0 a6 62 bc
       0.023246245 0.073454216 0.082392514 -0.013833672
0003d0 90 d6 87 bc 26 ff ba 3d a1 06 fb 3d cf a0 f2 3d
       -0.016581804 0.09130697 0.12257124 0.11847078
0003e0 9a 6f c1 bb 9c e2 9b 3d 1f a1 d8 3a 8e c6 08 3e
       -0.0059031965 0.07611582 0.001652751 0.13356993
0003f0 a8 3b 85 bd 1b c3 a9 3c e9 6b 64 bc 26 00 6e 3c
       -0.06505519 0.020722916 -0.013941743 0.014526403

conv2.bias f4 [32]
000000 02 6b 62 3e b7 94 37 3e f3 6b 69 3d 7c 91 10 3e
       0.22111133 0.17927824 0.056987714 0.14117998
000010 db 2c 5e be 6c 68 47 bd 46 45 5d bc d4 59 bb be
       -0.21696799 -0.04868357 -0.013505286 -0.3659197
000020 d6 aa b1 bd 81 0d 52 be 95 c4 e7 3c 50 aa b3 bd
       -0.086751625 -0.20512964 0.02829198 -0.08772719
000030 3e 58 b3 bb f2 f1 0b 3e 4b 08 29 be f1 46 7e bd
       -0.005473166 0.13666514 -0.1650707 -0.062079374
000040 8a 10 08 bd ca 9d 8c 3d 69 6f 92 ba 76 1e 86 3b
       -0.033218898 0.068660334 -0.0011172119 0.0040929867
000050 39 99 60 3e 1d 7b 69 bd 78 fa 28 3e ab de 32 3e
       0.2193345 -0.057002176 0.16501796 0.17467754
000060 56 de 60 bc 54 6c c2 3c 96 69 d5 3d 55 ea de 3b
       -0.013724884 0.023733296 0.104205295 0.006802837
000070 b6 32 c1 3d 57 a4 fb 3d d2 9c 8d be 09 01 91 3d
       0.094335005 0.12287205 -0.27658707 0.070802756

conv3.weight f4 [64, 32, 3, 3]
000000 8d ed 93 3d f9 61 ca 3d a2 8b fe bc db 64 a4 3d
       0.072230436 0.09881968 -0.031072441 0.08027049
000010 bc 7f 52 3d 62 f3 bc 3c 43 a2 00 be 58 2f 91 bd
       0.05139135 0.023065273 -0.12561898 -0.07089108
000020 24 4f 9c bd 08 77 9b 3d 4a f3 13 3e 4b dc ce 3d
       -0.076322824 0.07591063 0.14448276 0.10100611
000030 13 47 1f 3d a1 46 1e 3e f2 2a 1d bb 31 d3 9e 3d
       0.03888614 0.1545663 -0.0023981896 0.07755125
000040 40 21 72 3d 33 12 9b bc f3 a1 55 bc a1 74 ab 3d
       0.05911374 -0.018929577 -0.0130391 0.083718546
000050 d2 2f 53 3c fe 42 e1 3c 36 c9 7c 3d a0 fb ac bc
       0.012889819 0.027497765 0.061715327 -0.021116078
000060 6a 83 23 3d 83 f9 79 3d 0f 2a 12 3d f6 c9 05 bc
       0.039920248 0.06102897 0.03568464 -0.008165827
000070 a8 b3 05 3d 2a 87 92 3d c0 4b 71 bc 6c 7b 33 3d
       0.032642037 0.07154687 -0.014727533 0.043818876
000080 e1 bf 4a 3c b5 fd 7c 3d 61 ee 11 3d 69 ee 0e 3e
       0.012374849 0.06176539 0.035627726 0.13958134
000090 22 f0 72 3d 07 81 93 bb 59 67 d5 bd 85 f0 29 be
       0.05931104 -0.0045014652 -0.104201026 -0.16595657
0000a0 34 ef b8 bd 0c 95 0f be 77 7a 82 bd 7f f3 86 bd
       -0.090299994 -0.140217 -0.063710146 -0.06589412
0000b0 d9 3d 04 be aa 4c 4c bc b4 71 aa bd 3b f2 a1 39
       -0.12914218 -0.01246945 -0.083224684 0.0003088879
0000c0 0f b9 12 3d fe 2b d1 3d af 73 7a bc 9b d9 48 bd
       0.035821017 0.10213469 -0.01528637 -0.04903565
0000d0 d8 84 27 3d ed 87 f7 3b 85 bf 74 bd 62 1c e4 bd
       0.040898174 0.0075540454 -0.05975296 -0.11138226
0000e0 c6 c0 a3 bd d3 fa 84 3c c9 fb c1 bd 6e 85 10 be
       -0.07995753 0.016232884 -0.09471852 -0.141134
0000f0 03 5e ae bd cb 05 f5 bd 61 82 a1 bd 4f 0a 92 3b
       -0.08514025 -0.119639955 -0.07886196 0.0044567953
000100 3f 7b 84 3d 67 4c 84 3d a7 f2 90 bc ce 4b 26 3d
       0.0646882 0.06459885 -0.01769383 0.040599637
000110 6d ae b5 bc 10 c1 18 bd 3f 7b fb 3c 16 a8 57 bd
       -0.0221779 -0.037293494 0.030698417 -0.052650534
000120 f6 6a 04 bd 50 97 06 3b 3c 5d a3 3c ce 3c 34 bd
       -0.03232857 0.0020536967 0.019941919 -0.0440033
000130 a3 8f 6e bd b2 23 0f 3d 02 11 36 bd f8 f8 a0 bc
       -0.05824245 0.03494615 -0.044449814 -0.019649968
000140 6c cb 2d bd 50 2e c3 3c 11 fa 0a bb 35 4e 05 bd
       -0.042430326 0.023825794 -0.002120618 -0.032545287
000150 e5 c0 5e bd ab 62 a8 3c 5d c3 58 bc 43 ff 9d 3c
       -0.054383177 0.020554861 -0.013230172 0.019286757
000160 55 e5 16 3d 04 ee 8d bd 10 90 73 3d e1 13 dc bc
       0.0368398 -0.069301635 0.05946356 -0.026864948
000170 b9 2d c4 3c 17 b7 d0 bb fd 7c 54 3c 00 2c a9 3d
       0.023947584 -0.0063694823 0.012969253 0.082603455
000180 12 85 77 3d 78 17 e4 3d c4 12 9c 3d be 71 00 3e
       0.06042964 0.11137289 0.07620767 0.12543389
000190 48 54 27 bd 2a bc ef 3b f3 b9 a8 3d 3f 81 b9 bd
       -0.04085186 0.007316132 0.08238592 -0.09057855
0001a0 ca 9a 3e bc 12 61 80 bd a4 cc b1 bd ec 60 a8 3d
       -0.011633584 -0.06268515 -0.0868161 0.082216114
0001b0 f6 40 39 bd 0a 98 c8 bd b6 95 0a b9 14 e7 ef 3b
       -0.045227967 -0.09794624 -0.00013216477 0.007321248
0001c0 d2 f7 ae bd 4a 07 28 3b ca 96 4e bd 73 84 e2 bd
       -0.08543362 0.002563911 -0.050436772 -0.11060419
0001d0 50 55 4e bc 46 94 9e bd 8f da 62 bd 13 ec a3 bd
       -0.012593582 -0.07743125 -0.055384215 -0.08004012
0001e0 6a 3d dc bd 23 58 38 be 54 30 38 be 3d b9 0c be
       -0.10753901 -0.18002371 -0.17987186 -0.13742538
0001f0 09 9a 21 be cf ab 17 be 9f 92 28 3c ad 68 f4 bd
       -0.15781416 -0.14811634 0.010288863 -0.11934028
000200 d2 92 e2 bb 36 cd ff bd 67 09 29 be 3e e9 d8 bd
       -0.006914475 -0.12490313 -0.16507493 -0.105913624
000210 76 c1 ca bd 2b 05 c1 bd 7f ec 89 bd b0 2d 0d 3b
       -0.09900181 -0.09424814 -0.06734561 0.0021542124
000220 4c 32 d6 3b c0 03 2a 3d d8 69 90 bd 24 ea 58 bd
       0.0065367576 0.041507483 -0.07051438 -0.05295767
000230 52 77 04 bd f6 a1 0d 3c d3 89 71 bc d2 d6 3b 3c
       -0.032340355 0.0086445715 -0.0147423325 0.011464791
000240 29 88 c7 3d ff 0a e4 bc 2c df 99 3d b7 40 e9 3c
       0.09742767 -0.027837275 0.0751327 0.028473241
000250 1c b9 eb b9 b2 b5 63 3d c6 e6 8a bd 7f ea b5 bd
       -0.0004496061 0.0555932 -0.06782298 -0.08882617
000260 52 80 c1 bc 18 ab b4 3d cf f6 fb 3b b5 21 5b bd
       -0.023620758 0.08821696 0.007689334 -0.053498942
000270 b4 6c 16 3d 20 11 d7 bc 89 c6 e8 bd 53 f4 24 3d
       0.03672476 -0.026253283 -0.113659926 0.04027207
000280 f2 37 50 bd d1 da 36 3d 94 a5 ac 3d 16 86 00 3b
       -0.050834604 0.044642273 0.08430019 0.0019611171
000290 62 20 1c bc 2a b8 06 3e ce df 83 3c c7 62 01 3e
       -0.009529205 0.1315619 0.01609793 0.12635337
0002a0 90 83 92 3d cd b5 a4 3d db 53 f8 3d a9 08 87 3c
       0.07154 0.08042488 0.12125369 0.016483622
0002b0 96 c5 e6 3c ad 8a 01 3d 83 11 1d be 50 4f a8 bd
       0.028170388 0.031626392 -0.15338711 -0.08218253
0002c0 20 7e d9 3c e8 92 6b bd e7 51 35 bd dd 39 4a bc
       0.026549399 -0.057513148 -0.04426756 -0.012342897
0002d0 42 30 d3 bd b9 a1 c5 bd 2f 15 e6 bc dc e4 f5 bc
       -0.10311939 -0.09649987 -0.028086273 -0.030016355
0002e0 39 40 1e 3d 35 e8 3c bd 3b fd b0 bd ce 3d 36 3c
       0.038635466 -0.046119887 -0.0864205 0.011123134
0002f0 1a dd 92 bd ee 1d 9f 3d 48 5a c9 3d 3d de b8 3d
       -0.07171078 0.077693805 0.09831673 0.090267636
000300 0d 25 eb 3d 89 c4 2b 3d e7 d5 f5 3d 5d 90 7c 3c
       0.11481676 0.041935477 0.12003689 0.015415278
000310 50 23 9a bc 07 e0 3e 3d ab 2c be 3d 5f 86 06 3d
       -0.018815666 0.046600368 0.092858635 0.03284299
000320 05 c5 49 3c c8 f9 ee 3d 3f c7 19 3d cd 14 58 3d
       0.0123150395 0.11668736 0.03754353 0.052754212
000330 3d b8 5f 3c 3e ae 29 bc 79 5c e6 3d fa 65 f3 bd
       0.013654766 -0.010356484 0.112481065 -0.11884685
000340 23 d9 50 bd 2a 87 cb bc 95 64 0c be b3 e0 1b bd
       -0.050988328 -0.024844725 -0.13710244 -0.038056087
000350 9e 9e 3c bd 4a d6 e8 bd 31 f2 03 3c ed 0c be bd
       -0.046049707 -0.113689974 0.008053348 -0.09279809
000360 52 f8 b4 bd ad 23 be bd 66 58 da 3d 37 08 d2 3d
       -0.08836426 -0.09284148 0.10661392 0.10255473
000370 be 7e 01 3d 53 d4 ac 3d 30 99 75 3d da a1 24 3d
       0.03161501 0.08438935 0.059960544 0.040193416
000380 3b dc 9e 3c c3 19 b1 3c 0a 77 af 3c d3 53 58 3c
       0.019392123 0.02161873 0.021419067 0.013203579
000390 dd ae f1 bd 92 0b 10 bd 26 b0 3c bc ee 76 3a 3d
       -0.11800931 -0.035167284 -0.011516606 0.045523576
0003a0 25 4b 18 bd 8c 3a 36 3d 5e 31 13 3e 1b 5a bf 3d
       -0.03718104 0.04448943 0.14374301 0.09343358
0003b0 a9 d0 ae 3b 1c 4c 9a 3d 2a 73 31 3e 0a 5e 24 3e
       0.005334933 0.07534048 0.17329088 0.16051498
0003c0 3d c7 cb 3d 5b 95 12 3e 43 a0 a4 3d df f1 26 3e
       0.09950111 0.14314787 0.0803838 0.16303204
0003d0 b9 ec 2c 3e 78 93 8c ba ea ad 1a 3e 2d 0e c6 bd
       0.16887178 -0.0010725101 0.15105405 -0.096706726
0003e0 8f 42 73 bd 77 f9 84 3d 89 f5 8d bd 97 19 58 bc
       -0.059389647 0.06492894 -0.06931598 -0.013189695
0003f0 5b 77 38 3e 33 0a e6 bc c2 27 a4 3d dc 91 24 3e
       0.1801428 -0.028081035 0.08015396 0.16071266

conv3.bias f4 [64]
000000 c2 03 4b 3e 73 e2 09 3d 0c 25 bd bc 05 f1 8e 3e
       0.19825652 0.033663224 -0.023088954 0.27918258
000010 c3 e0 9e 3d 66 a7 04 3e 77 85 87 3c aa 18 fd bc
       0.07757714 0.12954482 0.016543133 -0.03089555
000020 9f 6a 10 bd a2 7a a2 3d 98 e6 56 3d 9b 69 23 3e
       -0.03525793 0.079335466 0.052466005 0.15958254
000030 f9 e2 8a 3e 3c be 46 3e c8 7e a2 bb 87 36 9a 3a
       0.2712629 0.19408506 -0.004958961 0.0011765518
000040 25 f1 20 3e 2e 28 0c 3d cf c1 07 3e af 68 59 bc
       0.1571699 0.034218006 0.13257526 -0.013269587
000050 ac 30 d9 3c c1 b1 ef 3b 1d f6 07 3e c9 dc e1 bd
       0.026512466 0.007314891 0.13277479 -0.110284396
000060 54 f0 e7 bc 5a fc 0b bd 95 76 d7 3d 2f 31 ad 3c
       -0.02831284 -0.034176208 0.105206646 0.021141617
000070 c6 b3 95 3e 05 ed b5 bd d5 4b ba bc 7a 3c 25 bb
       0.2923872 -0.088830985 -0.022741238 -0.0025213049
000080 cd 3e 3c bd 99 7a b2 bd 6f 5f 9a 3e 84 62 5b 3e
       -0.04595833 -0.0871479 0.30150935 0.214243
000090 35 f0 2c 3e be 63 7b 3e 78 1b 3d 3e d4 b4 a1 3c
       0.16888507 0.24549767 0.1846751 0.019739546
0000a0 16 b0 49 3e ec 0c 87 3e cc b5 b7 3c 05 42 62 3e
       0.19696078 0.26377046 0.022425555 0.22095497
0000b0 f4 45 05 3e b4 b0 47 3e 0e 5f c2 3b 27 fd 97 bd
       0.13014966 0.19501 0.0059317416 -0.07421332
0000c0 9f 73 5c 3d db ee 7d be 9d a1 97 3c 05 5b 61 3d
       0.053821202 -0.24798147 0.01850968 0.055018444
0000d0 ae 5f 3a 3e 99 f3 e8 3d 9c 2d f1 3c dd 26 8f 3e
       0.18200561 0.113745876 0.029440694 0.27959338
0000e0 7b 09 7d 3d de 6f 81 bd 10 a5 d2 bc c7 30 de bd
       0.06177662 -0.06320165 -0.025713474 -0.10849147
0000f0 7c dd 07 be 9b d1 f1 3d a3 b8 f1 3c 81 68 d7 bd
       -0.13268083 0.11807557 0.029506987 -0.105179794

fc.weight f4 [10, 1024]
000000 5a b7 db 3c ed 2f a9 be 6c 7d 25 be 98 a3 ce bd
       0.026820827 -0.33044377 -0.16161126 -0.10089797
000010 c1 7d eb bd dd c5 12 be 7d 19 f8 3c eb 73 67 bd
       -0.11498595 -0.14333291 0.030285591 -0.056507032
000020 62 be 2f bd 9a 8e bf bd c1 88 a6 3c fb 80 5d be
       -0.042906173 -0.09353371 0.020328881 -0.21631233
000030 20 d8 16 bd 4d de f1 3d 70 6a 27 3d 3c 69 06 bd
       -0.036827207 0.11809979 0.04087299 -0.032815203
000040 57 4c 5c 3d ba 48 86 3c a2 2a 2d 3d 59 f7 3e 3d
       0.05378374 0.0163921 0.042276986 0.046622608
000050 ea db 94 3b e8 0b 40 bd 26 25 b6 bd b8 7a b2 3c
       0.0045428174 -0.046886355 -0.08893804 0.021787032
000060 dc 4a b3 bd 4a 0b 11 bd 7c 1d 2e bc 1e 18 87 3d
       -0.08754513 -0.035411157 -0.010627147 0.06596397
000070 fb 87 8f bc 3c 91 48 bc c0 6d a7 3d ed 79 03 bc
       -0.017520895 -0.012241658 0.0817523 -0.008024675
000080 30 2f 85 3d 12 5e 4d 3e 4a b0 5e 3e 5c b5 09 3e
       0.06503141 0.20055416 0.21746936 0.1344809
000090 b0 57 49 be 34 50 f1 ba 4f 1c cd bc 7b 7a 49 3e
       -0.19662356 -0.0018410743 -0.025037913 0.19675629
0000a0 1e d8 8e 3d a1 6c cd 3c 39 cf a7 3c 8a 60 5d 3d
       0.06974815 0.025076212 0.020484554 0.054047145
0000b0 62 f4 a0 3d 93 b2 1e bd 2e 81 c6 3d b2 be 27 3d
       0.07859112 -0.03874452 0.09692608 0.040953346
0000c0 06 e6 c1 bd 23 c9 e7 3c 69 a3 69 bd 51 d2 4f be
       -0.094677016 0.028294152 -0.057040606 -0.20295073
0000d0 b9 39 84 3e e9 e6 37 3d 1c e4 10 3e e1 45 b0 bc
       0.2582529 0.044897947 0.14149517 -0.021517696
0000e0 94 5b fe bb f1 a5 32 3c bf 9d c7 3d a9 f0 e2 3d
       -0.007762382 0.010903821 0.097468846 0.110810585
0000f0 c0 33 55 3e 14 f8 c9 3b 7f f7 11 be 3e f4 3d 3e
       0.20820522 0.0061636064 -0.14254569 0.18550202
000100 4f b7 90 3d 02 c6 9b 3d cd 08 36 3c 95 3b 53 bd
       0.07066213 0.07606126 0.011110497 -0.051570494
000110 42 66 14 3d 6e 87 00 3d b9 14 08 bd 77 a5 80 bd
       0.036230333 0.031379156 -0.033222888 -0.0628156
000120 23 54 55 3d 8c 9b f9 bd b9 14 32 be 1a c9 37 bd
       0.052082192 -0.12187871 -0.17390718 -0.04486952
000130 27 08 4c 3e 8e 5d 08 3d d2 d4 92 bc ab 83 38 3e
       0.19924985 0.033292346 -0.017923746 0.18018977
000140 17 ff 9f 3d b8 49 9b 3c 8f b1 5e bd 82 4a 9a 3d
       0.078123264 0.01895605 -0.05436855 0.075337425
000150 34 a2 8e 3d c7 3a 96 bd ab e7 98 bd 38 f0 0a bd
       0.069645315 -0.0733543 -0.07466062 -0.033920497
000160 b4 51 ec 3c 94 8b 82 bd 36 85 14 be db 22 10 3c
       0.028847553 -0.06374279 -0.14503941 0.008797373
000170 3c ae ad bd f2 1d 0d be cb 3d c4 bd 22 5a 25 bd
       -0.08480498 -0.13780954 -0.095820986 -0.04036916
000180 67 6d 35 3c 9a fd 28 bc 00 6a df 3c da a7 db 3d
       0.011073447 -0.01031437 0.027272224 0.107253745
000190 f9 18 10 bd 20 5a 3a bc e2 e0 b1 bd 76 4f fc 3d
       -0.035180066 -0.011374027 -0.08685471 0.123198435
0001a0 08 27 d9 3c 9a 8f 10 3c 98 35 e2 bd e7 d4 d3 3b
       0.02650787 0.0088233 -0.110453784 0.006464589
0001b0 3a ce b4 3d 87 f6 1c 3d 11 de 4f 3d 70 96 f3 bc
       0.08828397 0.038321044 0.05074889 -0.02973482
0001c0 62 4d 23 3d ae cf 5d bc 44 0d 3a bd 4e 27 e0 3b
       0.03986872 -0.013538284 -0.045422807 0.006840623
0001d0 86 5f d9 bc be be 3d 3d 49 77 5a 3d 44 65 92 bc
       -0.026534807 0.046324484 0.053336415 -0.017870553
0001e0 78 f5 8b 3c b0 b9 c9 3d 25 ef 8c 3d 35 75 87 3b
       0.017084822 0.0984987 0.06881551 0.004133845
0001f0 dc 29 d5 bc 06 65 59 bd 91 58 20 3c f3 4e b0 3d
       -0.026020937 -0.05307486 0.009786741 0.08608808
000200 d2 21 9d bd 49 33 a5 bd ce 61 6c bd a4 81 5c 3c
       -0.07672466 -0.080664225 -0.05771046 0.013458643
000210 75 d0 c2 bc aa 4d 93 bd 35 10 98 bc 2a 9f b8 3d
       -0.02378104 -0.071925476 -0.018562416 0.09014733
000220 a7 c6 06 3e 81 7f 37 bd c5 4a 01 bd 40 bc 0e 3c
       0.13161717 -0.04479933 -0.031565446 0.0087118745
000230 7b c5 cd 3d 73 d2 33 bc 19 38 09 bd 65 00 19 bc
       0.10047432 -0.010975468 -0.033500765 -0.009338473
000240 ed bd eb bc 3f 14 e8 bc cd 41 2d bd c2 fa b3 bd
       -0.028777087 -0.028329967 -0.04229908 -0.08788063
000250 43 cf 25 3d 73 10 09 3e 15 74 05 bc d4 fe af 3c
       0.040480863 0.13385181 -0.008145352 0.021483816
000260 ad d6 3f 3d c2 24 a2 3d 63 a2 84 3d f5 33 05 3d
       0.04683559 0.07917167 0.06476285 0.032520253
000270 02 9f b7 bc 05 4a 9f 3c 2c 93 81 bd f2 93 a6 3d
       -0.022414688 0.019444475 -0.06326899 0.08133687
000280 8f 91 35 bd f3 58 ef bc ec e0 ad bc 0a c0 3e bd
       -0.04432827 -0.029217219 -0.021225415 -0.04656986
000290 b9 d9 c8 3b 85 a7 37 bc 04 0e 0c be d9 ec 66 bd
       0.00612947 -0.011209373 -0.13677222 -0.05637822
0002a0 bc 6f 94 3d 5d 1a 0c be 6b b5 d5 bc bf 6b 8d 3d
       0.07247874 -0.13681932 -0.026087483 0.069053166
0002b0 89 56 5b 3c 3d f9 0e bc 66 84 65 bd d0 06 21 3e
       0.013387331 -0.008726415 -0.056034468 0.15725255
0002c0 10 97 37 3e 41 e7 c7 bc 7c a3 b1 3d e3 91 09 3d
       0.1792872 -0.024402263 0.0867376 0.033586394
0002d0 cb 1b 2e 3c 39 4f 04 3d 3e d7 6d 3d b3 13 bd bd
       0.010626744 0.032302115 0.0580666 -0.09232273
0002e0 6e 6e db 3c 34 dc ef bd dd 55 2a be 2d 66 06 3d
       0.026786055 -0.11711922 -0.16634317 0.032812286
0002f0 5f 67 07 3d ec 19 e0 3d e8 72 6e 3d 08 b4 84 3d
       0.033057567 0.10942444 0.058215052 0.06479651
000300 b3 9a 9d bd 81 a0 a6 bd 66 ce 4c bd 82 ed 88 bd
       -0.07695522 -0.081360824 -0.050001524 -0.06685926
000310 b0 67 62 3d ff 23 11 3d 19 60 88 bd e2 27 98 bd
       0.055274665 0.03543472 -0.06658954 -0.07429482
000320 29 e2 ab bc 43 82 88 3d 2e 8e 30 bd 59 0e dc 3d
       -0.020981865 0.066654705 -0.043104343 0.10744924
000330 50 f4 d0 bd 7e 5c 0b bc 6c 57 67 be 91 dd a2 3c
       -0.10202849 -0.008505939 -0.22591943 0.019881042
000340 71 eb 05 be 5c 06 3b 3c ec 3d 7a bd 3e 24 ac bd
       -0.13078095 0.01141509 -0.06109421 -0.0840535
000350 1f fd 45 3b 27 93 8e 3d 5d 0f b4 bd 31 22 03 be
       0.0030210686 0.06961661 -0.08791993 -0.12806012
000360 50 0b 50 3c 63 95 89 bd e5 a4 34 bc 4a a9 55 bd
       0.01269801 -0.067179464 -0.011025642 -0.0521634
000370 a5 64 99 bd 7b 94 52 bd b9 76 d1 3c 15 2f 0f 3d
       -0.074898995 -0.051411133 0.025569307 0.03495701
000380 3f 25 9d 3b d4 66 22 bd dd 9a 17 bd 9d 82 74 3c
       0.0047957 -0.039648846 -0.037012924 0.014923719
000390 2c 98 f1 bc 2d 7e 08 3d 7c cd e4 3d a9 69 52 bd
       -0.029491507 0.033323456 0.111720055 -0.051370297
0003a0 44 51 b7 3d d1 43 eb bc 3a c6 64 bd f9 19 df 3c
       0.08951047 -0.02871886 -0.055853106 0.027234064
0003b0 9a 80 3a 3d 90 d0 23 3d c8 98 ff 3c c4 b9 21 3d
       0.0455328 0.039993823 0.031200781 0.0394838
0003c0 d7 eb 29 bb a2 b7 0d bd e4 4d 0f bd b1 6a 19 bd
       -0.0025927925 -0.034598954 -0.03498639 -0.037455264
0003d0 63 a1 a5 bc e6 2a 9a 3c 49 cd e5 bc 1f 5e 82 3d
       -0.020218557 0.018819284 -0.02805199 0.063656084
0003e0 04 80 cb bd 65 09 6a bd c9 bb 88 bd a9 f5 e1 3b
       -0.099365264 -0.057137866 -0.06676442 0.00689574
0003f0 ee a7 8c 3c 18 25 06 3e 33 f8 ec bd 3b 8e 5f bd
       0.017169919 0.13100088 -0.11570778 -0.054579

fc.bias f4 [10]
000000 f8 c4 01 bd 5f 9e 24 bd d4 39 91 3d 12 05 8f 3c
       -0.031681985 -0.040190097 0.07091108 0.017458472
000010 f4 b8 49 3d a3 c8 60 bd 6d 3c 1b 3e 2d 53 15 be
       0.04924865 -0.054878842 0.1515977 -0.1458251
000020 fb db c1 3d 02 8c f8 bd
       0.09465786 -0.12136079
