Prune/pts/prune.pth (torch, 20783 bytes, 8 tensors)

feature.0.weight f4 [4, 3, 3, 3]
-0.10694893 0.25689542 0.1756165 0.107095905 0.013312922 0.20074469 -0.10597448 -0.13388737
0.08716172 -0.099155456 0.18979497 -0.00010424207 -0.01480728 -0.14183834 -0.14380538 0.11801308
-0.16904019 0.02628454 -0.19653009 0.14586999 -0.15999162 -8.097176e-05 -0.21478352 0.15354078
-0.11192331 0.07881447 0.12989883 -0.15987979 0.123157896 0.08573208 -0.19293968 0.1937722
0.05477892 0.011516646 0.026694678 0.060068235 -0.21851203 -0.16427584 0.07412106 0.07038964
0.12702318 0.19504341 0.005434142 -0.034006067 0.22003326 -0.14220396 -0.17795946 0.11200003
-0.052995797 0.1703037 0.21232094 -0.1382423 -0.14254586 0.119927995 -0.20712765 -0.040198375
-0.19723116 -0.052662637 0.11717562 0.10824478 0.1248136 0.20205364 0.115575716 0.016300745
0.06000274 -0.19155028 0.08209037 0.17429437 -0.0008333766 0.1489822 0.18095087 0.08501018
-0.17674802 -0.16566792 -0.063988544 -0.12691262 0.19690922 -0.15484637 0.028367763 0.18819779
0.19274363 -0.027146947 -0.08910071 0.035799105 -0.075970255 -0.13668464 -0.14069296 0.30774736
0.04599216 -0.007306149 -0.1926793 -0.29701138 -0.07849088 -0.10975848 -0.18137446 -0.09645186
0.13657017 0.15966849 -0.047578048 0.10304004 -0.166043 -0.21970545 -0.06824794 0.113519885
0.061710335 0.14773043 -0.10184678 0.13340469
00000000: 0a08 dbbd cc87 833e d0d4 333e 1955 db3d
00000010: 711e 5a3c 0490 4d3e 2609 d9bd c519 09be
00000020: d881 b23d 0412 cbbd 9d59 423e 899c dab8
00000030: 3c9a 72bc 123e 11be b841 13be d7b0 f13d
00000040: df18 2dbe ad52 d73c 2f3f 49be f15e 153e
00000050: d8d4 23be 62cf a9b8 36f0 5bbe cb39 1d3e
00000060: 0c38 e5bd 7b69 a13d 3304 053e 87b7 23be
00000070: 353a fc3d 4d94 af3d fb91 45be 386c 463e
00000080: dc5f 603d 50b0 3c3c ccae da3c 1c0a 763d
00000090: 9ec1 5fbe ed37 28be c8cc 973d 7228 903d
000000a0: 5d12 023e 76b9 473e e310 b23b f249 0bbd
000000b0: 6650 613e ea9d 11be 013b 36be 4660 e53d
000000c0: 1f12 59bd 1864 2e3e a96a 593e 648f 0dbe
000000d0: 8bf7 11be cf9c f53d 4519 54be 0da7 24bd
000000e0: f7f6 49be c7b4 57bd c5f9 ef3d 70af dd3d
000000f0: 469e ff3d 26e7 4e3e f6b2 ec3d 2489 853c
00000100: 6fc5 753d c225 44be ff1e a83d 397a 323e
00000110: f576 5aba ca8e 183e 2f4b 393e d119 ae3d
00000120: 6ffd 34be daa4 29be 6d0c 83bd 62f5 01be
00000130: 92a2 493e 0c90 1ebe 8363 e83c ecb6 403e
00000140: 965e 453e 4663 debc 6f7a b6bd 15a2 123d
00000150: 4b96 9bbd 0ff7 0bbe d111 10be 1091 9d3e
00000160: 4662 3c3d 6c68 efbb b94d 45be e011 98be
00000170: d4bf a0bd 0ec9 e0bd 3aba 39be 8e88 c5bd
00000180: 0dd9 0b3e 2380 233e 33e1 42bd a806 d33d
00000190: 2d07 2abe 77fa 60be 93c5 8bbd 1d7d e83d
000001a0: fac3 7c3d a546 173e 0b95 d0bd 3d9b 083e

feature.0.bias f4 [4]
-0.08149454 -0.039784294 0.06043608 0.09973159
00000000: 9ce6 a6bd dbf4 22bd d38b 773d 1340 cc3d

feature.2.weight f4 [7, 4, 3, 3]
-0.07524157 -0.06832929 0.031928536 0.114100404 -0.014017768 0.047112804 0.086653635 0.04785154
-0.052449528 0.07243727 -0.031090578 -0.037017666 0.044431556 0.02380812 -0.043440934 -0.1572194
-0.05328482 0.023060584 0.08100147 0.12153916 -0.040920343 0.00076358364 -0.12338586 -0.110609494
-0.14369477 -0.12770003 0.08494182 0.06426953 0.07179708 0.024476951 0.04423583 0.09313523
0.08702584 0.10406046 0.0784998 0.077344075 -0.2597872 -0.19497308 -0.19126083 -0.18934083
-0.23293823 -0.15969482 -0.18641718 -0.06472588 -0.063706696 0.04537246 0.075655386 0.053450227
0.024000779 0.0007651907 -0.0042567085 -0.0695763 -0.110848606 -0.009236821 0.0012999058 0.0783863
-0.043116197 -0.049017783 -0.000110977235 -0.03669168 -0.076017156 -0.0531174 -0.04615996 0.10676228
0.008504339 0.07243989 0.11195338 0.06575673 0.04848604 0.046861395 0.10805106 0.03585831
-0.057518587 -0.016256386 0.027558858 -0.08046645 -0.10506923 -0.0816761 -0.101760514 -0.15305664
0.008012118 -0.017737417 0.024439838 -0.0767409 -0.09318302 -0.05702886 -0.022238424 0.01614325
-0.050670058 -0.06759224 0.014190057 0.05628077 -0.09626179 -0.024093958 -0.049377583 -0.027768536
0.040305626 0.058133587 -0.012120111 -0.00023886215 0.113434374 0.08166539 0.15123807 0.023846216
0.13195382 0.16368684 0.040475853 0.10240632 -0.034472797 -0.04686437 -0.0960981 0.023502124
-0.040673178 -0.013544504 -0.070848264 0.012638277 -0.15141188 0.037974734 -0.0040687486 0.05053518
-0.060417376 0.04279854 0.014765766 -0.000904979 -0.09963742 -0.06481438 0.0761282 -0.004034476
-0.06570488 -0.0793058 0.042515844 0.012887247 -0.11312239 -0.015800618 0.026980052 -0.09475502
-0.14831449 -0.0916796 -0.03740491 0.03318118 0.049303126 -0.12431822 -0.086101666 -0.12733468
-0.05518605 -0.1070068 0.06987376 -0.013987408 -0.14351389 0.060510326 -0.0068296464 -0.112490624
-0.016489642 -0.098734215 -0.13803022 -0.108762026 0.021645432 -0.074987344 -0.12194266 -0.0051981397
-0.03639261 -0.11766019 0.058100887 -0.04840151 -0.093138635 -0.0031881875 -0.049150992 0.028022636
0.06466771 0.025037576 0.03709744 -0.046364527 0.07955445 0.08705645 0.05020574 0.11337894
0.049184863 0.077192284 0.0018317383 -0.009678332 0.117284454 0.03729211 0.00520047 0.057607852
0.122167796 -0.036700692 -0.071718104 -0.12318592 -0.07126524 0.012101714 -0.016893161 -0.05361073
-0.04250594 -0.04388587 -0.019426545 -0.040733464 0.06412443 0.079451054 -0.075086474 0.06413057
-0.041499957 -0.059853315 -0.0853539 -0.0028645038 0.03209361 0.029259507 0.10334379 -0.22370549
-0.13175249 -0.2056733 -0.09875293 -0.06994277 0.037122346 0.10437768 -0.008381555 0.053473268
-0.17763053 -0.11559392 -0.07591 -0.19789371 -0.009811779 -0.12720123 -0.119711004 -0.01656711
-0.1164208 -0.06747772 0.06322483 0.027680535 -0.033463947 0.07329324 -0.04192443 0.047451824
0.066415265 0.06240508 -0.0059427535 0.08326018 -0.013093868 0.060026843 -0.048618246 0.051907502
0.07669284 -0.070644446 -0.00017186068 -0.15163678 -0.122936375 -0.082856305 -0.18837154 -0.085842535
-0.1868371 -0.19006683 -0.127551 -0.14101589
00000000: 4118 9abd 3af0 8bbd 7fc7 023d 79ad e93d
00000010: c8aa 65bc 5bf9 403d 7677 b13d faff 433d
00000020: 51d5 56bd fe59 943d abb1 febc d69f 17bd
00000030: ddfd 353d 3f09 c33c 1fef 31bd 1ffe 20be
00000040: 2f41 5abd 8de9 bc3c 19e4 a53d 86e9 f83d
00000050: 179c 27bd 3b2b 483a bab1 fcbd 3b87 e2bd
00000060: b924 13be ccc3 02be faf5 ad3d be9f 833d
00000070: 590a 933d e383 c83c a130 353d afbd be3d
00000080: 9b3a b23d a71d d53d 81c4 a03d 9266 9e3d
00000090: d402 85be 06a7 47be e1d9 43be 90e2 41be
000000a0: 5c87 6ebe 0a87 23be 25e4 3ebe 018f 84bd
000000b0: a878 82bd 79d8 393d 36f1 9a3d a0ee 5a3d
000000c0: 489d c43c 1497 483a dc7b 8bbb 057e 8ebd
000000d0: 9804 e3bd 0956 17bc 9a61 aa3a ff88 a03d
000000e0: 9c9a 30bd dfc6 48bd 73bc e8b8 044a 16bd
000000f0: e2ae 9bbd a191 59bd 3a12 3dbd 2fa6 da3d
00000100: c855 0b3c 5d5b 943d d047 e53d 77ab 863d
00000110: 4c99 463d bcf1 3f3d e049 dd3d 2ae0 123d
00000120: 9c98 6bbd 1d2c 85bc 1dc3 e13c 98cb a4bd
00000130: 892e d7bd cd45 a7bd d167 d0bd e1ba 1cbe
00000140: 4245 033c 0f4e 91bc 0e36 c83c 552a 9dbd
00000150: bdd6 bebd 1897 69bd 5b2d b6bc d93e 843c
00000160: 688b 4fbd cd6d 8abd 6a7d 683c aa86 663d
00000170: e724 c5bd b160 c5bc 2640 4abd d77a e3bc
00000180: 8317 253d 7c1d 6e3d 6e93 46bc 1277 7ab9
00000190: 4850 e83d 2f40 a73d 27de 1a3e 2459 c33c
000001a0: e71e 073e 869d 273e 02ca 253d 68ba d13d
000001b0: 5933 0dbd dbf4 3fbd 15cf c4bd 8787 c03c
000001c0: eb98 26bd c4e9 5dbc e518 91bd c710 4f3c
000001d0: b70b 1bbe 658b 1b3d 2353 85bb fafd 4e3d
000001e0: 3678 77bd 864d 2f3d 1dec 713c 1d3c 6dba
000001f0: b40e ccbd 67bd 84bd 1ae9 9b3d a333 84bb
00000200: 4890 86bd 146b a2bd 1825 2e3d 0825 533c
00000210: b6ac e7bd 4c70 81bc 4505 dd3c ec0e c2bd
00000220: c1df 17be 84c2 bbbd e435 19bd fde8 073d
00000230: 13f2 493d 8d9a febd 1256 b0bd 0664 02be
00000240: c40a 62bd 6226 dbbd f919 8f3d 712b 65bc
00000250: 4ef5 12be add9 773d 3acb dfbb 7c61 e6bd
00000260: 4915 87bc 2a35 cabd cb57 0dbe a0be debd
00000270: c351 b13c f792 99bd 13bd f9bd 2855 aabb
00000280: 6b10 15bd d3f7 f0bd 32fb 6d3d a940 46bd
00000290: 78bf bebd e9f0 50bb 8d52 49bd ba8f e53c
000002a0: 8170 843d 9a1b cd3c 7cf3 173d bbe8 3dbd
000002b0: 72ed a23d a74a b23d 89a4 4d3d 3833 e83d
000002c0: 1176 493d fd16 9e3d f016 f03a de91 1ebc
000002d0: d532 f03d 9dbf 183d b468 aa3b 36f6 6b3d
000002e0: 1c33 fa3d 7753 16bd f1e0 92bd e648 fcbd
000002f0: 83f3 91bd 4446 463c 8763 8abc ed96 5bbd
00000300: b51a 2ebd acc1 33bd 6b24 9fbc 22d8 26bd
00000310: ab53 833d 3cb7 a23d f0c6 99bd e356 833d
00000320: dcfb 29bd c028 75bd 07ce aebd 66ba 3bbb
00000330: 9774 033d a2b1 ef3c e9a5 d33d 0d13 65be
00000340: 20ea 06be 069c 52be fa3e cabd 283e 8fbd
00000350: 9a0d 183d f7c3 d53d ca52 09bc c906 5b3d
00000360: c7e4 35be 81bc ecbd b476 9bbd a6a4 4abe
00000370: 95c1 20bc 0a41 02be 0b2b f5bd bfb7 87bc
00000380: 076e eebd c231 8abd 057c 813d 4ac2 e23c
00000390: 7e11 09bd c41a 963d f3b8 2bbd d85c 423d
000003a0: ba04 883d 789c 7f3d 6ebb c2bb 5084 aa3d
000003b0: aa87 56bc b5de 753d ed23 47bd f69c 543d
000003c0: 2311 9d3d 09ae 90bd 8035 34b9 ac46 1bbe
000003d0: 11c6 fbbd 91b0 a9bd 78e4 40be 36ce afbd
000003e0: 3a52 3fbe e1a0 42be bb9c 02be 7866 10be

feature.2.bias f4 [7]
0.067655504 0.10377163 0.05894282 0.029297125 0.07516919 -0.038027175 0.11342797
00000000: f88e 8a3d 3886 d43d 076e 713d 8600 f03c
00000010: 4ef2 993d 62c2 1bbd ec4c e83d

feature.4.weight f4 [13, 7, 3, 3]
0.0817662 0.07526141 -0.0136741595 -0.047143452 -0.02859211 -0.045182224 -0.086372264 -0.06444075
-0.14378051 0.056141917 0.09227857 0.06292303 0.06780599 0.010270899 0.08327964 -0.051094867
0.03201723 0.0007543001 -0.0040082904 -0.020150032 -0.030354574 -0.01265488 -0.027595647 -0.05960162
-0.029198114 -0.07784323 -0.059604637 0.021425316 -0.009824998 0.020901646 0.06946928 0.010064619
0.07945945 0.05596448 0.021852436 -0.015624435 -0.086482115 -0.07344309 -0.13256453 -0.047798943
-0.10397186 -0.06437118 -0.0839722 -0.055897165 -0.11837918 0.035991836 0.09066521 0.022756115
0.008873407 -0.021972131 -0.01995798 -0.10374197 -0.06859394 -0.09478042 0.05962713 0.009307021
0.052384067 0.07684571 0.045941614 0.071189865 0.09679955 0.052511156 0.02738481 0.05572472
0.046382945 0.083051674 0.008299353 -0.013964593 0.02552037 0.0024829973 0.00685632 0.021856686
0.06229832 0.042816944 0.07135492 0.060467895 0.010323489 -0.02324661 -0.041204687 -0.052859634
-0.002113221 0.11736267 0.07746308 0.04744133 0.059416886 -0.017817654 -0.014347951 0.04471923
0.027825005 0.03419062 0.090484165 0.07803357 -0.00653725 0.07712831 -0.0064725457 0.023980688
0.0701601 0.03259451 -0.06845154 0.1076438 0.13762969 0.1596425 0.0651031 0.15634534
0.09418226 0.119247966 0.11754456 0.19160834 0.029663641 0.15545581 0.06948955 -0.0028323089
0.014417226 0.011163568 0.032890715 -0.014608668 0.018559398 0.00665746 0.0025554085 -0.009514845
-0.06189871 0.069202535 0.037379384 0.007665562 0.05073506 0.04712455 0.15644893 0.040402297
0.09187513 0.1162397 0.12899944 0.15070544 0.11003566 0.106043294 0.15135406 -0.028662022
0.014144344 -0.042192753 0.042841084 0.03842757 0.033665486 -0.063651666 -0.0011039566 -0.040959544
-0.04679728 -0.06567451 -0.08505185 -0.030641207 -0.054332934 -0.031002901 -0.046558872 0.04538436
0.027259972 -0.011602259 -0.047065422 -0.0023512992 0.060186863 0.048063427 -0.03894457 -0.0014363684
0.0050582653 0.009112636 -0.052282475 -0.12364446 -0.023917913 -0.033797327 -0.034997858 -0.085919835
-0.05201873 -0.10048543 -0.064750545 0.21898593 0.20277709 0.14844468 0.21570508 0.19387211
0.09683005 0.21556139 0.19356304 0.1931002 -0.006046292 0.04759254 -0.005188108 0.08922549
0.0201348 0.011712803 0.016407823 -0.0028048141 -0.04745544 -0.13868998 -0.15705195 -0.063859254
-0.10482775 -0.1701896 -0.14321268 -0.031753227 -0.1008173 -0.08384959 0.044177506 0.015856037
0.012041748 -0.0009391815 0.0018389366 -0.06319066 0.017132815 0.012563657 -0.009413695 0.024535209
0.048963446 0.022149295 0.0637114 0.07985468 0.029820863 0.031642914 0.04630429 0.0667711
0.021379994 -0.032298125 -0.039804168 -0.038270388 0.024369912 -0.024204189 0.06970325 0.051596012
0.044727553 0.11887646 0.062237184 0.08607456 0.14672762 0.039571088 0.10803248 0.10688749
0.07730891 0.16959214 -0.122510865 -0.12293328 -0.085048616 -0.15186368 -0.1513155 -0.13550836
-0.1432369 -0.069655 -0.14894696 -0.02438754 -0.029878197 -0.044827897 -0.028374132 -0.10104167
-0.06748474 -0.11376097 -0.107701436 -0.07049085 -0.04046297 -0.038890418 -0.009067452 -0.07818631
00000000: 0a75 a73d a722 9a3d 9509 60bc 7e19 41bd
00000010: 003a eabc ff10 39bd f1e3 b0bd 83f9 83bd
00000020: 333b 13be 11f5 653d 8cfc bc3d cadd 803d
00000030: dedd 8a3d 4647 283c 848e aa3d da48 51bd
00000040: 8024 033d 39bc 453a fa57 83bb ae11 a5bc
00000050: 28aa f8bc 6a56 4fbc 4410 e2bc d420 74bd
00000060: e230 efbc 456c 9fbd fe23 74bd 2584 af3c
00000070: 07f9 20bc ee39 ab3c e945 8e3d 12e6 243c
00000080: a3bb a23d 033b 653d e103 b33c a1fd 7fbc
00000090: 891d b1bd 5569 96bd ffbe 07be d3c8 43bd
000000a0: 33ef d4bd 0ad5 83bd 9ef9 abbd 6df4 64bd
000000b0: c970 f2bd 2d6c 133d aeae b93d 086b ba3c
000000c0: c461 113c e6fe b3bc eb7e a3bc ac76 d4bd
000000d0: fb7a 8cbd 3d1c c2bd 943b 743d 7a7c 183c
000000e0: ad90 563d 4961 9d3d 462d 3c3d fecb 913d
000000f0: d83e c63d f015 573d 1c56 e03c 9b3f 643d
00000100: 0bfc 3d3d ff16 aa3d 02fa 073c c0cb 64bc
00000110: 1810 d13c c8b9 223b fbaa e03b cb0c b33c
00000120: 862c 7f3d d260 2f3d 8722 923d 2fad 773d
00000130: da23 293c ad6f bebc 3fc6 28bd 5883 58bd
00000140: f77d 0abb d75b f03d f7a4 9e3d d751 423d
00000150: 1f5f 733d 54f6 91bc ab13 6bbc 832b 373d
00000160: 44f1 e33c 770b 0c3d c34f b93d 10d0 9f3d
00000170: 6d36 d6bb 73f5 9d3d a617 d4bb 2673 c43c
00000180: 19b0 8f3d d281 053d 5230 8cbd 5a74 dc3d
00000190: ccee 0c3e 5379 233e c654 853d fe18 203e
000001a0: a1e2 c03d 4738 f43d 34bb f03d fa34 443e
000001b0: 2a01 f33c cf2f 1f3e 8a50 8e3d 429e 39bb
000001c0: 3b36 6c3c 66e7 363c 6ab8 063d 3259 6fbc
000001d0: e109 983c d226 da3b a478 273b 27e4 1bbc
000001e0: 8089 7dbd 0fba 8d3d 201b 193d 652f fb3b
000001f0: 91cf 4f3d ac05 413d 2634 203e e17c 253d
00000200: 0729 bc3d 140f ee3d 6e18 043e 8752 1a3e
00000210: 605a e13d 3a2d d93d 8ffc 1a3e 9ecc eabc
00000220: aebd 673c 4fd2 2cbd 227a 2f3d 3a66 1d3d
00000230: d2e4 093d ce5b 82bd a3b2 90ba 32c5 27bd
00000240: 81ae 3fbd 5c80 86bd aa2f aebd 4503 fbbc
00000250: 368c 5ebd ccf9 fdbc 84b4 3ebd f3e4 393d
00000260: 4e50 df3c 6717 3ebc acc7 40bd 4118 1abb
00000270: 8086 763d 28de 443d 5784 1fbd 8744 bcba
00000280: cebf a53b 2a4d 153c 2626 56bd 4f39 fdbd
00000290: 80ef c3bc 116f 0abd ea59 0fbd bdf6 afbd
000002a0: 9811 55bd 4ecb cdbd ef9b 84bd d93d 603e
000002b0: cca4 4f3e e201 183e cbe1 5c3e 6986 463e
000002c0: d54e c63d 20bc 5c3e 6435 463e 0fbc 453e
000002d0: f91f c6bb 65f0 423d 0101 aabb dbbb b63d
000002e0: bcf1 a43c 0ee7 3f3c b369 863c f9d0 37bb
000002f0: a360 42bd bf04 0ebe 3ad2 20be a4c8 82bd
00000300: eeaf d6bd 2f46 2ebe 58a6 12be ac0f 02bd
00000310: 4d79 cebd 55b9 abbd 79f3 343d 85e4 813c
00000320: c04a 453c 6733 76ba 7908 f13a 1b6a 81bd
00000330: 1e5a 8c3c ccd7 4d3c e63b 1abc 10fe c83c
00000340: e58d 483d 7072 b53c 1f7b 823d da8a a33d
00000350: e24a f43c 009c 013d 91a9 3d3d 49bf 883d
00000360: 1925 af3c 0a4b 04bd b209 23bd 69c1 1cbd
00000370: 69a3 c73c dd47 c6bc 94c0 8e3d 5756 533d
00000380: 3d34 373d 8075 f33d 6bec 7e3d dc47 b03d
00000390: c43f 163e 4b15 223d 2240 dd3d d4e7 da3d
000003a0: 2254 9e3d 90a9 2d3e fae6 fabd 72c4 fbbd
000003b0: f82d aebd 2782 1bbe 73f2 1abe b4c2 0abe
000003c0: b2ac 12be 48a7 8ebd 8d85 18be 61c8 c7bc
000003d0: 1fc3 f4bc 759d 37bd de70 e8bc efee cebd
000003e0: 7035 8abd 83fb e8bd 9292 dcbd 825d 90bd
000003f0: 80bc 25bd 8f4b 1fbd a68f 14bc 2520 a0bd

feature.4.bias f4 [13]
0.056267496 0.027039932 -0.021807672 0.07818723 -0.0097183315 -0.026367575 0.02453857 0.15863535
0.09871353 0.038479656 -0.096257985 0.10815247 0.08284862
00000000: bf78 663d d982 dd3c 01a6 b2bc a020 a03d
00000010: a339 1fbc d000 d8bc 1c05 c93c 4e71 223e
00000020: 522a ca3d d89c 1d3d e822 c5bd 0b7f dd3d
00000030: 8aac a93d

classifer.0.weight f4 [10, 325]
0.0068452167 -0.008403745 -0.0037404527 0.009768184 -0.011671916 -0.021164354 0.005608158 0.008075964
-0.015221487 -0.014394028 -0.03609381 0.016226528 0.007608539 0.015278662 -0.002528794 0.029785493
0.00073942274 -0.017157936 -0.012478621 0.035334803 0.03677652 0.01866258 0.03478836 0.025795007
0.035516858 -0.06781421 -0.010319263 0.014025818 0.010820641 0.03991127 -0.105596535 -0.049620956
-0.047920305 -0.037444476 0.036896322 -0.09660798 -0.045491274 -0.027631382 -0.0030045942 -0.020326242
-0.035794064 -0.034607977 -0.015979057 -0.022177435 -0.05990856 0.06425277 -0.009402397 -0.0016233483
-0.03238741 0.0015148673 -0.10099039 -0.09081794 -0.11928765 -0.02982106 0.019322213 -0.0313845
-0.036348425 -0.027589343 0.03462172 0.06507835 0.0071915863 0.06707413 0.02091959 0.057106547
0.038897738 0.03661303 0.032657795 0.014062574 -0.03808486 0.018995734 -0.0019854428 0.019603502
0.0011799879 -0.025842994 -0.05612756 0.0111961635 0.04780858 0.023078617 0.01828797 0.019109812
0.032458868 0.027379725 0.03129073 0.014762587 0.03720256 -0.013740257 -0.038183104 -0.0356018
-0.016577614 0.026203962 0.047868095 -0.0061726384 -0.009609201 0.00869217 0.016685996 0.021407302
0.005619336 0.043038566 0.026072066 0.00816339 -0.013405051 0.027848778 0.038348682 0.04180211
0.04566369 -0.019337423 -0.017847437 0.03346304 0.0032895862 0.016538108 0.005904803 -0.020035563
-0.05580892 -0.027543442 0.023867713 0.04924731 0.033223446 0.018205542 -0.0027900988 0.014077867
0.0491442 0.058512714 0.043774154 -0.0027192729 0.040690508 -0.026411554 0.011822199 -0.0019808118
0.03302914 0.010974458 0.0064378725 0.03724854 0.02849096 0.020312076 -0.0016404379 0.035292614
0.026140472 -0.0069671413 0.017557638 0.062921435 0.08603063 0.03718038 0.0143708885 0.0026879206
0.054367248 0.04485888 0.023148973 0.04661299 0.022683775 0.052016076 -0.12925102 -0.09845215
-0.044083316 0.015896525 0.07141607 -0.09338755 -0.039219253 0.0036182418 0.08905453 0.04308301
-0.019983409 0.024418248 0.011712974 0.050524086 0.019292347 -0.010578343 -0.013310719 0.015833689
-0.015081442 -0.013575827 0.025146633 0.031727687 0.01640508 0.02125789 -0.10489246 0.0266714
0.02727909 0.05114427 0.036516584 0.014200829 -0.015422924 0.018851137 0.041379903 0.05058696
0.009168651 -0.01639499 -0.059639998 0.0043015983 -0.036134645 -0.028219432 0.015450864 0.005132138
0.006042003 0.01711536 0.04765904 0.028854545 0.0030233783 0.03526084 0.02606925 0.0055331113
-0.060771372 -0.038580872 -0.011415464 -0.038453963 -0.049947247 -0.08708953 -0.009752141 0.039211508
-0.0045854896 -0.073003314 -0.07744637 0.023633957 0.05460969 -0.009222583 0.008918586 -0.037468694
-0.041462164 0.03839248 -0.044567253 -0.13984203 -0.006818162 -0.009254489 0.01669143 -0.0350968
-0.09884376 0.10602331 0.06350361 0.05325904 -0.009682042 -0.11390213 0.16503628 0.008273129
-0.012812706 0.006702457 -0.049454737 0.061334584 -0.0682507 -0.045920905 -0.048720647 -0.10574761
-0.061536893 -0.07973059 -0.016337156 0.014679628 -0.01521311 -0.07990207 -0.06523139 -0.05483989
0.030412158 0.08177695 0.053664997 0.03766534 -0.030532194 -0.12335387 -0.10762472 0.11050438
00000000: d74d e03b dcaf 09bc 6222 75bb bc0a 203c
00000010: 903b 3fbc de60 adbc a4c4 b73b 0c51 043c
00000020: 8b63 79bc eed4 6bbc 1ad7 13bd 7fed 843c
00000030: 0d51 f93b 5a53 7a3c 20ba 25bb b500 f43c
00000040: d2d5 413a cd8e 8cbc 2173 4cbc 3abb 103d
00000050: faa2 163d 44e2 983c 3d7e 0e3d 0d50 d33c
00000060: 207a 113d 2de2 8abd 2012 29bc 8bcc 653c
00000070: 0f49 313c 007a 233d ff42 d8bd 583f 4bbd
00000080: 1548 44bd 615f 19bd 9920 173d 68da c5bd
00000090: 0f55 3abd 355b e2bc bae8 44bb 3883 a6bc
000000a0: cc9c 12bd 18c1 0dbd 83e6 82bc 74ad b5bc
000000b0: ae62 75bd f596 833d 830c 1abc 88c6 d4ba
000000c0: a9a8 04bd 838e c63a 0dd4 cebd c2fe b9bd
000000d0: 154d f4bd 4c4b f4bc 9e49 9e3c 098d 00bd
000000e0: 16e2 14bd 0c03 e2bc 81cf 0d3d cc47 853d
000000f0: 66a7 eb3b 295e 893d 8f5f ab3c 8ee8 693d
00000100: 3c53 1f3d 8bf7 153d 2ec4 053d b666 663c
00000110: dffe 1bbd f19c 9b3c 341e 02bb 8697 a03c
00000120: d3a9 9a3a b0b4 d3bc 03e6 65bd 1d70 373c
00000130: eed2 433d 5e0f bd3c a7d0 953c 2e8c 9c3c
00000140: 97f3 043d 724b e03c b52a 003d c7de 713c
00000150: b661 183d d11e 61bc e365 1cbd 31d3 11bd
00000160: c7cd 87bc b1a9 d63c 5611 443d d843 cabb
00000170: e96f 1dbc 9a69 0e3c 12b1 883c 5e5e af3c
00000180: 6822 b83b 3549 303d 1695 d53c bdbf 053c
00000190: dca0 5bbc 1f23 e43c 8213 1d3d b038 2b3d
000001a0: d909 3b3d 8469 9ebc ca34 92bc 8a10 093d
000001b0: 1996 573b ed7a 873c 147d c13b 9f21 a4bc
000001c0: e597 64bd c9a2 e1bc 3986 c33c 8cb7 493d
000001d0: 4f15 083d ca23 953c 17da 36bb dba6 663c
000001e0: 6e4b 493d 07ab 6f3d 874c 333d d435 32bb
000001f0: 17ab 263d 0b5d d8bc e6b1 413c 82d0 01bb
00000200: 9049 073d 37ce 333c caf4 d23b ed91 183d
00000210: e065 e93c 8365 a63c f603 d7ba fd8e 103d
00000220: 8b24 d63c 9e4c e4bb 09d5 8f3c f4dc 803d
00000230: d430 b03d 744a 183d e073 6b3c d327 303b
00000240: 31b0 5e3d f2bd 373d eaa2 bd3c 43ed 3e3d
00000250: 53d3 b93c cf0e 553d 615a 04be 48a1 c9bd
00000260: b590 34bd 6e39 823c 9742 923d f941 bfbd
00000270: 5ea4 20bd 0620 6d3b 3962 b63d cf77 303d
00000280: 3fb4 a3bc c708 c83c c6e7 3f3c 58f2 4e3d
00000290: fc0a 9e3c c950 2dbc 3415 5abc a7b5 813c
000002a0: 2718 77bc 256d 5ebc 5000 ce3c e4f4 013d
000002b0: f263 863c 0725 ae3c dcd1 d6bd fb7d da3c
000002c0: 6678 df3c a77c 513d 6a92 153d 98aa 683c
000002d0: 6fb0 7cbc b36d 9a3c f97d 293d 4634 4f3d
000002e0: 1c38 163c c94e 86bc 1249 74bd 6cf4 8c3b
000002f0: ec01 14bd 702c e7bc 9f25 7d3c 7e2b a83b
00000300: fffb c53b 8335 8c3c 2036 433d 5e60 ec3c
00000310: df23 463b ac6d 103d 2e8f d53c 1a4f b53b
00000320: 67eb 78bd fa06 1ebd ed07 3bbc e781 1dbd
00000330: 7c95 4cbd ff5b b2bd 72c7 1fbc 3f9c 203d
00000340: e041 96bb c382 95bd 349c 9ebd 009c c13c
00000350: 69ae 5f3d 511a 17bc 431f 123c c678 19bd
00000360: 3bd4 29bd 6f41 1d3d 278c 36bd c032 0fbe
00000370: e36a dfbb 24a0 17bc 77bc 883c aac1 0fbd
00000380: 996e cabd c022 d93d 2e0e 823d 2726 5a3d
00000390: 6da1 1ebc 8545 e9bd 45ff 283e 058c 073c
000003a0: 62ec 51bc 49a0 db3b 0d91 4abd f939 7b3d
000003b0: 06c7 8bbd 8f17 3cbd 4d8f 47bd 3492 d8bd
000003c0: 1c0e 7cbd cb49 a3bd 80d5 85bc d382 703c
000003d0: 6840 79bc b2a3 a3bd 0998 85bd cb9f 60bd
000003e0: eb22 f93c ac7a a73d d4cf 5b3d f946 1a3d
000003f0: a71e fabc f4a0 fcbd 596a dcbd 1f50 e23d

classifer.0.bias f4 [10]
-0.051657703 -0.05173379 0.008257052 0.02689626 0.08808364 -0.018765315 0.064010546 -0.06685242
0.058057383 -0.026753493
00000000: 0797 53bd d0e6 53bd 9648 073c 8c55 dc3c
00000010: 3265 b43d b8b9 99bc f617 833d ece9 88bd
00000020: 94cd 6d3d 242a dbbc
