Prune/pts/prune_model.pth (torch, 15983 bytes, 8 tensors)

conv1.weight f4 [4, 3, 3, 3]
0	0xbc946280	-0.018113375
1	0xbda44a3e	-0.08021973
2	0x3e4124c6	0.18861684
3	0xbe643158	-0.22284448
4	0x3d5335cc	0.051564977
5	0x3e851038	0.25988936
6	0xbe45b50e	-0.19307348
7	0x3d8e5d21	0.06951357
8	0x3dc0ca35	0.09413568
9	0xbe5e1692	-0.21688297
10	0x3dd99456	0.10623996
11	0xbc5727ca	-0.013132045
12	0xbeb1d445	-0.3473226
13	0x3e46c2c0	0.19410229
14	0x3e999ff7	0.30004856
15	0xbeaf56de	-0.34245962
16	0xbdc03674	-0.09385386
17	0x3e07190e	0.13193151
18	0x3d073f13	0.033019137
19	0x3c8d6628	0.017260626
20	0x3e2c17e7	0.16805993
21	0xbe2c7c98	-0.16844404
22	0xbdf42809	-0.119216986
23	0x3e64c4e5	0.22340734
24	0xbeafd999	-0.343457
25	0x3e199a02	0.15000156
26	0x3e1c8326	0.15284404
27	0x3e74bab9	0.23899354
28	0x3e962640	0.29326057
29	0xbdaa5e72	-0.08318795
30	0xbca73122	-0.02040917
31	0x3dd98a7a	0.106221154
32	0x3e61c493	0.22047643
33	0xbdac73a2	-0.08420493
34	0xbe7f274e	-0.24917337
35	0xbe8a11b3	-0.26966628
36	0x3e00adc9	0.12566294
37	0x3d0842a2	0.03326667
38	0x3e3b3bc4	0.18284518
39	0xbd90c4bb	-0.07068773
40	0x3c4134e6	0.011792397
41	0x3e18cefe	0.14922711
42	0xbe0bfa28	-0.13669646
43	0xbe95477c	-0.291561
44	0xbe865eb8	-0.2624414
45	0xbe0339dd	-0.12815042
46	0x3e44c072	0.19214037
47	0x3bcc4288	0.006233517
48	0xbc2a2b55	-0.010386308
49	0x3d819d5a	0.063288406
50	0x3e52b528	0.20576918
51	0xbdb434da	-0.08799143
52	0xbe817299	-0.25282744
53	0x3c94301b	0.018089345
54	0xbdb6aa2b	-0.08919176
55	0x3e1b3d32	0.15160063
56	0xbdf44ea1	-0.1192906
57	0x3d84cde3	0.06484582
58	0xbbc6d817	-0.0060682404
59	0xbdb7dd01	-0.089777
60	0xbdfe57f1	-0.12419117
61	0xbe523f52	-0.20531967
62	0xba7db025	-0.00096774317
63	0xbd699d6c	-0.057034895
64	0xbd93fa11	-0.07225431
65	0x3df64805	0.120254554
66	0x3e388a63	0.1802154
67	0x3e7b8c96	0.24565348
68	0x3e84dbea	0.2594903
69	0xbc8c724a	-0.017144341
70	0x3de7f5ae	0.113261566
71	0x3e561296	0.20905527
72	0x3d823398	0.06357497
73	0x3e3cc3ea	0.1843411
74	0x3e1e9bda	0.1548914
75	0xbe1c4634	-0.15261155
76	0x3deb937a	0.11502738
77	0x3e03da30	0.128762
78	0xbd645c47	-0.055752065
79	0xbd296d85	-0.04136421
80	0xbdd6c964	-0.10487631
81	0xbe2700bf	-0.16308878
82	0xbe2ce8bf	-0.1688566
83	0xbbce43e2	-0.0062947134
84	0xbdea1901	-0.1143055
85	0xbe7c195a	-0.24619046
86	0xbce5f3a1	-0.028070273
87	0x3e06ec1f	0.1317601
88	0xbe2dbd6b	-0.16966788
89	0x3d120b2b	0.03565518
90	0xbd6f80be	-0.058472387
91	0xbd9a22fb	-0.07526203
92	0xbcaa6c37	-0.020803554
93	0xbe38dcb8	-0.18052948
94	0x3e3e2725	0.1856962
95	0xbcbbda59	-0.022931265
96	0xbe357dad	-0.17723723
97	0xbe0b4b83	-0.13603024
98	0x3dc2ed4a	0.095179155
99	0x3cedb515	0.02901701
100	0x3e85e0a4	0.2614795
101	0xbdcbe0d2	-0.099549904
102	0x3e9bd67d	0.3043708
103	0x3e8f9b28	0.28048062
104	0x3e333828	0.1750189
105	0x3e87497c	0.26423252
106	0x3df6d23e	0.12051819
107	0x3e7c4fd3	0.24639826

conv1.bias f4 [4]
0	0xbcd26011	-0.025680574
1	0xbd950635	-0.072765745
2	0x3ec0a748	0.37627625
3	0x3d7708ed	0.060311247

conv2.weight f4 [7, 4, 3, 3]
0	0xbd5e388e	-0.054253154
1	0xbe63b6ac	-0.22237653
2	0xbe4293ff	-0.19001769
3	0xbf039f89	-0.51415306
4	0xbf6a87e1	-0.91613585
5	0xbf10ed36	-0.56611955
6	0xbf559717	-0.8343367
7	0xbf959bcd	-1.1688172
8	0xbf1cd5c7	-0.612637
9	0x3e8effe0	0.27929592
10	0x3dc900d6	0.098146126
11	0xbb9b3f32	-0.004737758
12	0x3e937605	0.2880098
13	0x3e93f33e	0.28896517
14	0x3e3fd183	0.18732266
15	0x3dd0f41b	0.102028094
16	0x3e22c17f	0.15894125
17	0x3e2519b7	0.1612309
18	0xbd3033b0	-0.043018043
19	0x3de29c42	0.1106496
20	0x3df7f7ce	0.12107812
21	0x3bd4924c	0.0064871665
22	0x3d2980a3	0.041382443
23	0x3e6a2490	0.2286551
24	0xbd4d7566	-0.050160788
25	0x3e1b73b4	0.15180856
26	0x3e8b47d6	0.27203244
27	0xbdf3d875	-0.1190652
28	0xbcbd4c68	-0.023107722
29	0xba61ded7	-0.00086162746
30	0xbe3b7316	-0.1830562
31	0xbd7e9031	-0.06214923
32	0xbc383202	-0.011242392
33	0xbe078d7e	-0.13237569
34	0xbdd83508	-0.1055699
35	0xbcb7b7a7	-0.02242644
36	0xbd7288f5	-0.059212644
37	0xbd072098	-0.03299007
38	0x3ddd6e2e	0.10812031
39	0xbe7eb414	-0.24873382
40	0xbe8f53c3	-0.27993593
41	0xbe023eb5	-0.12719233
42	0x3da0985c	0.0784156
43	0xbe01f4c1	-0.12691022
44	0xbe4c7cb0	-0.1996944
45	0x3e1fe48d	0.15614529
46	0x3ec33768	0.3812821
47	0x3e79da6e	0.2439973
48	0x3ed4a17c	0.41529453
49	0x3f398f04	0.7248385
50	0x3f124f1d	0.5715197
51	0x3e9c5896	0.30536336
52	0x3ee28fa3	0.4425021
53	0x3e94b33b	0.29042992
54	0xbd93378d	-0.0718833
55	0xbcbf11f9	-0.023324
56	0xbd17b186	-0.037034534
57	0xbc856bb5	-0.01628671
58	0xbc25b3ce	-0.01011367
59	0x3d5d0cba	0.053967215
60	0x3dd69c01	0.10478974
61	0x3c279f84	0.010230903
62	0x3caf0b4f	0.021367697
63	0xbc9d60dc	-0.019211225
64	0x3deccbba	0.11562295
65	0x3d53618a	0.051606692
66	0x3d1025e3	0.03519238
67	0xbc4e30a8	-0.012584843
68	0xbd102d96	-0.035199724
69	0x3e366545	0.17812069
70	0x3e3a6086	0.18200883
71	0x3e15d876	0.14633355
72	0x3e927298	0.28603053
73	0x3dee702c	0.11642489
74	0xbdb33484	-0.08750251
75	0x3e8b53e7	0.2721245
76	0x3da7525f	0.08170008
77	0xbf1da0dc	-0.61573577
78	0x3be84509	0.0070883078
79	0xbb7a9ad1	-0.003823925
80	0xbebc79ad	-0.3681158
81	0xbf21c879	-0.6319652
82	0xbf2bf5b0	-0.67171764
83	0xbec610e5	-0.38684765
84	0xbf66bd1e	-0.9013232
85	0xbf90c951	-1.1311437
86	0xbf9ed400	-1.2408447
87	0xbeb67b8c	-0.35641134
88	0xbf1353a4	-0.575495
89	0xbf2eb907	-0.6825108
90	0x3dcf2267	0.101139836
91	0x3d406e09	0.046979938
92	0x3d553892	0.052055903
93	0xbdab3726	-0.08360128
94	0x3d808649	0.06275613
95	0xbda31f78	-0.079649866
96	0x3cadfd44	0.02123893
97	0x3dda5801	0.10661317
98	0x3dfcf638	0.1235165
99	0x3e21ebe1	0.15812637
100	0x3cc7b692	0.024379048
101	0xbbf925bf	-0.0076033766
102	0x3e096216	0.13416323
103	0x3df26b91	0.11836923
104	0xbcce0dd2	-0.025153074
105	0x3d9ac079	0.075562425
106	0xbe3a5084	-0.18194777
107	0xb7fd94e8	-3.022929e-05
108	0xbf05203b	-0.52002305
109	0xbf8cee4d	-1.1010224
110	0xbf33127f	-0.699501
111	0xbf11cfc5	-0.56957656
112	0xbfafa34f	-1.3721713
113	0xbf8e514e	-1.1118562
114	0x3e873810	0.2640996
115	0xbeefc735	-0.4683167
116	0xbf1762bb	-0.59135026
117	0xbe1d909f	-0.153872
118	0xbdf187fc	-0.11793515
119	0xbd4556b2	-0.048178382
120	0xbe8ca619	-0.27470472
121	0xbeb32681	-0.34990314
122	0xbe8d4fbf	-0.27599904
123	0x3e312d70	0.1730249
124	0xbe415072	-0.18878344
125	0xbe97f1e7	-0.29676744
126	0x3dc15205	0.09439472
127	0x3c079974	0.008276332
128	0xbcbd8fe0	-0.023139894
129	0x3e05cee2	0.13067201
130	0xbd2785aa	-0.040898956
131	0xbda3984c	-0.07988033
132	0x3e4f1978	0.2022456
133	0x3d1b4816	0.037910543
134	0xbdc5d9c7	-0.09660678
135	0x3de0b30f	0.10971653
136	0xbdb3997a	-0.08769508
137	0xbe1b4067	-0.15161286
138	0x3e5f94b9	0.21834077
139	0x3d7f2ae0	0.06229675
140	0xbd86f2a6	-0.0658925
141	0x3e3b88f9	0.1831397
142	0x3da27ef2	0.07934369
143	0x3c9ad71f	0.018901406
144	0xbeabea84	-0.3357736
145	0xbd26eb20	-0.040751576
146	0x3e0e0b3e	0.13871476
147	0xbdc83f86	-0.09777741
148	0x3eaba4a7	0.33524057
149	0x3eb15d3c	0.34641445
150	0x3cff7c28	0.031187132
151	0x3edadd99	0.4274719
152	0x3eb0662d	0.34452954
153	0xbc438acf	-0.01193495
154	0x3dabad96	0.08382718
155	0x3d4d31bd	0.050096262
156	0x3d50cb7d	0.05097531
157	0x3e37023a	0.17871943
158	0x3e3b65dc	0.18300575
159	0x3dab4be2	0.08364083
160	0xbd1b6b07	-0.037943866
161	0xbcd0c2ff	-0.025483606
162	0x3d69527d	0.056963433
163	0x3d5770df	0.052597877
164	0xbd5ffcc8	-0.05468443
165	0x3b51aee1	0.0031995105
166	0xbe71c482	-0.23610118
167	0xbe931dd1	-0.28733686
168	0x3dbc9593	0.092082165
169	0xbd9d7db3	-0.07689991
170	0xbd7ed1a1	-0.062211636
171	0xbdb1622c	-0.08661303
172	0x3d10baf0	0.035334527
173	0xbe44468f	-0.19167541
174	0xbd9d2ca5	-0.07674531
175	0x3d15bf2a	0.03655926
176	0xbdcb0767	-0.09913521
177	0x3e1d4166	0.15356979
178	0x3e8f83d6	0.2803027
179	0x3d2cd61b	0.042196374
180	0x3d6af4dc	0.057362422
181	0x3d2c173d	0.04201435
182	0x3e0eb6b3	0.13936882
183	0xbd0f6c7a	-0.03501556
184	0x3db46c95	0.08809773
185	0x3dba8f73	0.09109392
186	0xbc96fb76	-0.018430453
187	0x3d5ea7d6	0.05435928
188	0x3dde8a80	0.108662605
189	0xbd2d8e28	-0.0423719
190	0xbe2f7bc8	-0.17137063
191	0xbe236b72	-0.15958956
192	0xbe42b0ac	-0.19012707
193	0xbeec85bf	-0.4619579
194	0xbe7d44e9	-0.24733318
195	0xbe126835	-0.14297564
196	0xbeaa3986	-0.33247012
197	0xbe2baf01	-0.16765977
198	0x3d3d0d1e	0.046155088
199	0x3e5cdfe9	0.2156979
200	0x3d53ff37	0.051757064
201	0x3e87952c	0.26480997
202	0x3e97373f	0.29534337
203	0x3e7c586b	0.24643104
204	0x3dead499	0.11466331
205	0x3e719c08	0.23594677
206	0x3e267dfc	0.16258997
207	0xbd89e998	-0.067340076
208	0x3ca958eb	0.020672282
209	0xbd0e40ee	-0.03472989
210	0xbd1534aa	-0.036427177
211	0x3d737301	0.05943585
212	0x3e26cbfa	0.16288748
213	0x3cb4d50a	0.022074241
214	0x3e697847	0.22799788
215	0x3e24a0cd	0.16076966
216	0x3b8d69e1	0.0043156003
217	0xbca8763e	-0.020564195
218	0x3d937f82	0.072020546
219	0xbe09f1a9	-0.13471092
220	0xbe56b8c4	-0.2096892
221	0xbdec544b	-0.11539515
222	0xbe41a03c	-0.18908781
223	0xbe70a67d	-0.2350101
224	0xbcc65dfc	-0.024214737
225	0x3c879d44	0.016554482
226	0x3cb95c54	0.022627033
227	0x3d4c2968	0.049844176
228	0xbd067ac3	-0.03283192
229	0xbdb55429	-0.08853943
230	0xbc8773a0	-0.016534626
231	0xbe1eb750	-0.15499616
232	0xbd96c22c	-0.07361254
233	0x3bff9957	0.007800262
234	0xbdb9e41b	-0.09076711
235	0x3db32a39	0.08748288
236	0x3d0c42b5	0.034243304
237	0xbd72780a	-0.05919651
238	0x3d8d32b8	0.068944395
239	0x3e1572c0	0.14594555
240	0xbcd5717f	-0.026055096
241	0x3d766bd8	0.06016144
242	0x3dd1c4ea	0.102426365
243	0x3e2921c3	0.16516785
244	0x3e72e74e	0.23721048
245	0x3e899ede	0.2687902
246	0x3e8f66b0	0.28008032
247	0x3e8cff7c	0.2753867
248	0x3ebe2542	0.371378
249	0x3e5fe09b	0.21863024
250	0x3e4a98cc	0.1978485
251	0x3e99bc23	0.3002635

conv2.bias f4 [7]
0	0x3eef46bf	0.46733662
1	0x3cc6a230	0.024247259
2	0x3e620e24	0.22075707
3	0x3ec53b99	0.38522032
4	0x3e128ab9	0.14310731
5	0x3e70e6ae	0.23525497
6	0x3d0bd9b9	0.034143183

conv3.weight f4 [13, 7, 3, 3]
0	0xbe38c2a8	-0.18043005
1	0xbe2f1692	-0.17098454
2	0x3e6b4087	0.22973834
3	0xbe51f284	-0.20502669
4	0xbd749e32	-0.05972118
5	0x3e9897c8	0.298033
6	0xbdb6ced8	-0.08926171
7	0x3dc4d297	0.09610479
8	0x3e5fe314	0.21863967
9	0xbe4c9e4e	-0.19982263
10	0xbe29faa8	-0.16599524
11	0x3ea356a0	0.31902027
12	0xbe62aa19	-0.221352
13	0xbe37efdf	-0.17962597
14	0x3e3d75c1	0.18501951
15	0xbe8373fd	-0.2567443
16	0xbe2c8faf	-0.16851686
17	0x3e056508	0.13026822
18	0xbe392105	-0.18079002
19	0x3cda8936	0.026676755
20	0x3e343870	0.17599654
21	0xb9660507	-0.00021936382
22	0x3d93daf5	0.07219497
23	0xbd042236	-0.03225919
24	0xbdafda47	-0.08586555
25	0x3cca5c92	0.024702344
26	0xbde8cbb9	-0.11366982
27	0x3dae204b	0.08502253
28	0xbe001ea8	-0.12511694
29	0x3e494387	0.19654666
30	0xbdb2f365	-0.0873783
31	0xbdb05f72	-0.08611955
32	0x3e1ed62d	0.15511389
33	0xbe01cf7a	-0.12676802
34	0x3d84453b	0.06458517
35	0x3d4e33bf	0.050342318
36	0x3e1e528a	0.15461174
37	0x3dd6fee3	0.104978345
38	0xbce9ce05	-0.02854062
39	0x3dfd4260	0.12366176
40	0xbd4ceb0b	-0.050028842
41	0xbd841232	-0.06448783
42	0x3dbc610a	0.09198196
43	0xbda4132b	-0.080114685
44	0xbd12a481	-0.035801414
45	0xbd3b523e	-0.04573273
46	0x3bf752ef	0.0075477283
47	0x3dddb340	0.10825205
48	0xbe2f6f3b	-0.17132275
49	0x3b6c5d61	0.00360664
50	0x3e59b24c	0.21259421
51	0xbdbfffec	-0.09374985
52	0xbd9a1955	-0.07524363
53	0x3ded1928	0.11577064
54	0xbe5c6970	-0.21524596
55	0xbd4ee83a	-0.050514437
56	0x3e3d0279	0.18457974
57	0xbed8858e	-0.42289394
58	0x3ca747c9	0.020419972
59	0x3e96e747	0.29473326
60	0xbe2b9f7e	-0.1676006
61	0x3d660a02	0.056161888
62	0x3e743018	0.23846471
63	0x3d8eaccd	0.06966553
64	0x3dc07f92	0.09399332
65	0x3dbffb38	0.09374088
66	0x3e7061e9	0.2347485
67	0x3e0ee1df	0.1395335
68	0x3e5b6618	0.21425664
69	0x3e88a3f8	0.26687598
70	0x3ea9ad52	0.33140045
71	0x3ea17cc3	0.31540498
72	0xbe35ae0f	-0.1774218
73	0xbe4da6e7	-0.200832
74	0xbea26db8	-0.31724334
75	0xbe4a3dee	-0.19750187
76	0xbe65e2d4	-0.2244981
77	0xbe50b189	-0.20380224
78	0xbdf2fd79	-0.11864752
79	0xbd4438be	-0.047905676
80	0x3ae78ae4	0.0017665294
81	0xbd5e3ec0	-0.05425906
82	0x3e0a79c0	0.13523006
83	0x3e2d1749	0.16903414
84	0x3d678170	0.056519926
85	0x3e94deab	0.29076132
86	0x3e8c6e2e	0.2742781
87	0x3def5254	0.11685625
88	0x3e8de9ec	0.2771753
89	0x3e3e3cda	0.185779
90	0xbe2f482e	-0.17117378
91	0x3cd699ed	0.026196444
92	0xbc163ce3	-0.00916979
93	0x3c885778	0.01664327
94	0x3e75a657	0.23989235
95	0x3e49afde	0.19695994
96	0x3c8a627a	0.01689266
97	0x3e5a9827	0.21347104
98	0x3e2b2de2	0.16716722
99	0x3e0cce67	0.13750611
100	0x3d5b675b	0.053565364
101	0x3d43f780	0.047843456
102	0xbe138c61	-0.14409019
103	0xbe4cf237	-0.20014273
104	0x3c11ab01	0.008890868
105	0x3dc47c8a	0.095940664
106	0xbc50d19b	-0.012745286
107	0x3da0830c	0.07837495
108	0xbe208c1e	-0.1567845
109	0xb8216bc8	-3.848577e-05
110	0x3c8bdee9	0.017074065
111	0xbdc632fc	-0.09677693
112	0xbda77725	-0.08177022
113	0x3dc167c1	0.094436176
114	0xbe036cb1	-0.12834431
115	0xbe4938c8	-0.19650567
116	0xbd72c875	-0.059273202
117	0xbd6f5701	-0.058432583
118	0x3c1f3d98	0.009719275
119	0x3d2ddf17	0.042449083
120	0xbca02198	-0.019547269
121	0x3d082df1	0.03324694
122	0x3d80edc5	0.06295351
123	0xbdfc5fcc	-0.12322959
124	0xbe04b89a	-0.12961045
125	0x3d129b5a	0.035792686
126	0x3e9576ed	0.29192296
127	0x3f046592	0.51717484
128	0x3db98957	0.090593986
129	0x3ce00aef	0.027348964
130	0x3e8f5747	0.27996275
131	0x3b3766ee	0.0027984935
132	0x3d9f48c8	0.07777554
133	0xbc8d52b2	-0.017251346
134	0xbe465bce	-0.19370958
135	0xbe7d2b12	-0.24723461
136	0xbe97067a	-0.2949713
137	0xbe01e0ed	-0.12683459
138	0xbe513e41	-0.20433904
139	0xbe8a3c9a	-0.2699936
140	0xbd01d589	-0.031697784
141	0xbe8b1ed2	-0.27171952
142	0xbe16931b	-0.14704554
143	0xbd7cfa05	-0.061761875
144	0xbc47f07f	-0.012203335
145	0x3cc0747d	0.023493046
146	0x3d8a7f4c	0.06762561
147	0xbe05cc6d	-0.13066263
148	0xbdcde9a6	-0.100543305
149	0xbdcbaf99	-0.09945602
150	0xbcaadd63	-0.020857519
151	0xbdeb5d4f	-0.114924066
152	0xbde1dbb2	-0.11028232
153	0x3be4ffba	0.006988493
154	0x3d93ffff	0.07226562
155	0x3db0eab8	0.08638519
156	0xbd6ec5f9	-0.05829427
157	0xbc18e84c	-0.009332728
158	0xbdbfe320	-0.093694925
159	0xbca89a11	-0.020581277
160	0x3d10345f	0.035206195
161	0xbde48ce6	-0.11159687
162	0xbe8e9a23	-0.27851972
163	0xbe6dc315	-0.23218949
164	0xbd96a27b	-0.073552094
165	0xbe6871b5	-0.22699626
166	0xbedbdbae	-0.4294104
167	0xbe23ff9f	-0.1601548
168	0xbd4c45ad	-0.049871136
169	0xbec16706	-0.37773913
170	0x3d486b3d	0.048930395
171	0xbcf8d399	-0.030374335
172	0x3da7611f	0.08172821
173	0x3d01c088	0.031677753
174	0x3c083e2c	0.008315604
175	0x3e0c8725	0.13723429
176	0x3e03a26b	0.12854926
177	0x3d0fa56c	0.035069868
178	0x3cb51cf7	0.022108538
179	0x3d38240d	0.044956256
180	0x3c907176	0.017632227
181	0x3e09cd80	0.13457298
182	0xbcb2f060	-0.021843135
183	0x3e0ba616	0.13637576
184	0x3dc894b4	0.09793988
185	0xbd2ff962	-0.04296244
186	0xbd53d763	-0.05171908
187	0x3dec9428	0.11551696
188	0x3d1d30a9	0.038376484
189	0x3d304fc4	0.04304482
190	0x3e6e9b57	0.23301445
191	0x3e222aa0	0.15836573
192	0x3d61c868	0.055122763
193	0x3e75e778	0.2401408
194	0x3e9b76f6	0.30364197
195	0xbdcb9de6	-0.09942226
196	0xbd24851f	-0.040166017
197	0x3dd5a515	0.104318775
198	0x3de24478	0.11048216
199	0xbc0fbae6	-0.008772587
200	0xbdae2964	-0.085039884
201	0x3e8e9841	0.27850536
202	0x3e8012ef	0.25014445
203	0x3c38d3a7	0.011280931
204	0x3e8e50f4	0.27796137
205	0x3eb55089	0.35413006
206	0xbdd3d683	-0.10343649
207	0xbda52fb1	-0.08065737
208	0xbe5b7381	-0.2143078
209	0xbd5ac53e	-0.05341076
210	0xbd90af3f	-0.070646755
211	0xbe5b30df	-0.21405362
212	0x3d26b41c	0.04069911
213	0x3d16b579	0.03679416
214	0xbdd929ec	-0.10603699
215	0x39ccf630	0.00039093336
216	0x3d81dbac	0.06340727
217	0x3b059a3f	0.0020386127
218	0xbd3627ff	-0.044471737
219	0xbd4ba7b3	-0.049720477
220	0x3e42782a	0.18991151
221	0x3d80aab4	0.06282559
222	0xbcc7a17d	-0.024368996
223	0x3e9ecff8	0.31018043
224	0x3e125fdf	0.14294384
225	0xbde0dd8d	-0.109797575
226	0xbda700e5	-0.081544675
227	0xbbee29b2	-0.007268154
228	0x3d14970a	0.036276855
229	0x3b21670e	0.0024628076
230	0x3c47e980	0.012201667
231	0xbc3d48de	-0.011553017
232	0x3cad828e	0.021180417
233	0x3d8ce61a	0.06879826
234	0xbd15db4b	-0.036586087
235	0x3c235cb1	0.00997083
236	0xbb031d69	-0.0020006543
237	0xbe3538b6	-0.17697415
238	0xbe36eead	-0.17864485
239	0x3e11058c	0.14162272
240	0xbe4d88dd	-0.2007174
241	0xbe3c4a52	-0.18387726
242	0x3e93a6a7	0.28838083
243	0x3db559e6	0.088550374
244	0x3ce9507b	0.028480759
245	0x3de71777	0.112837724
246	0xbe606978	-0.21915233
247	0x3e26dc0b	0.16294877
248	0x3e16aa7b	0.1471347
249	0xbd8fd139	-0.07022328
250	0xbe34170f	-0.17586921
251	0x3d5f0319	0.054446314
252	0xbc142d80	-0.009044051
253	0x3cd49f67	0.025954915
254	0xbdddd5b3	-0.108317755
255	0xbde82599	-0.11335296

conv3.bias f4 [13]
0	0xbd9b4514	-0.07581535
1	0x3e5159c0	0.20444393
2	0x3f058d4c	0.52168727
3	0xbd8eaf89	-0.069670744
4	0x3ce91f41	0.028457286
5	0x3e29e603	0.16591649
6	0x3f1e18ed	0.61756784
7	0x3e14a0ae	0.1451442
8	0x3df44c3b	0.11928602
9	0x3c8e20d5	0.01734964
10	0xbd9031b0	-0.07040727
11	0x3f02b115	0.51051456
12	0x3e167c6d	0.14695902

fc.weight f4 [10, 208]
0	0xbcc649fe	-0.024205204
1	0xbd8cd64f	-0.068768136
2	0x3d953cf3	0.07287016
3	0x3de12da1	0.10995031
4	0xbd3d4884	-0.046211734
5	0xbd9d02eb	-0.07666572
6	0xbe5ab330	-0.21357417
7	0x3d763e3c	0.060117945
8	0x3dd7b19f	0.105319254
9	0x3d2d03f8	0.042240113
10	0xbe7c20a9	-0.24621834
11	0xbdb8b564	-0.090189725
12	0x3e2bf307	0.16791926
13	0xbe10a052	-0.14123657
14	0xbd85f14c	-0.06540164
15	0xbddf5c9a	-0.10906334
16	0x3d8b5b96	0.06804578
17	0xbd19cbd6	-0.03754791
18	0x3e366b8a	0.1781446
19	0x3df0e7c3	0.11762955
20	0xbd2912c0	-0.041277647
21	0x3dbe2850	0.09285033
22	0x3e918c6f	0.28427455
23	0xbc840da2	-0.016119782
24	0x3c9e4803	0.019321447
25	0xbae90cce	-0.0017780305
26	0xbdb9e93b	-0.09077688
27	0x3e0d8990	0.13822007
28	0x3ce92489	0.028459804
29	0x3e02622e	0.12732765
30	0x3d6c8c0a	0.05775074
31	0xbd089621	-0.0333463
32	0xbe81bcb6	-0.25339288
33	0x3ac6e387	0.001517401
34	0x3d581664	0.05275573
35	0x3d01b4e7	0.031666663
36	0xbe507373	-0.2035654
37	0xbdac8f6a	-0.084257916
38	0xbbffbd0c	-0.0078045186
39	0x3cf425d4	0.029803194
40	0xbdf19c95	-0.11797444
41	0xbe4dcf9b	-0.20098726
42	0xbda97110	-0.08273518
43	0xbdf4e0d1	-0.11956943
44	0xbe40e6c2	-0.18838027
45	0x3e0f1085	0.13971145
46	0x3d82348e	0.0635768
47	0x3d5ff937	0.05468103
48	0xbdfc7820	-0.123275995
49	0x3e54a418	0.20765722
50	0x3e0b1c6a	0.13585058
51	0xbdcd936b	-0.10037883
52	0xbe1aad8e	-0.15105268
53	0x3e229e74	0.15880758
54	0x3cf97da7	0.030455424
55	0xbdfe67d3	-0.12422147
56	0xbd660eec	-0.056166574
57	0x3dc5ce77	0.09658521
58	0x3d03a7a6	0.032142304
59	0x3e51979f	0.20467995
60	0x3e2bbb31	0.16770627
61	0x3e264a35	0.16239245
62	0xbe0ea35f	-0.13929509
63	0x3d898238	0.067142904
64	0xbec47db2	-0.38377148
65	0xbe779227	-0.24176846
66	0xbd1590bb	-0.03651498
67	0xbe337373	-0.17524509
68	0xbf1691df	-0.5881633
69	0xbdb4ae58	-0.08822316
70	0x3d878d84	0.06618789
71	0x3da5a710	0.08088505
72	0xbebd9603	-0.37028512
73	0xbdea83db	-0.11450931
74	0xbdad6452	-0.084664
75	0x3d967ce4	0.0734804
76	0xbdb06bc9	-0.086143084
77	0x3c85bad7	0.016324444
78	0x3dd895d8	0.105754554
79	0xbe8ba536	-0.27274483
80	0x3ca699c1	0.020336987
81	0x3d2c3646	0.042043947
82	0x3d781618	0.060567945
83	0x3d7d020d	0.061769534
84	0x3c4d165a	0.012517536
85	0x3cac3e97	0.021025939
86	0x3da34d2b	0.07973703
87	0xbde1a15e	-0.110171065
88	0xbc005b6d	-0.007834298
89	0xbe70b575	-0.2350672
90	0xbd70991d	-0.05873977
91	0xbd308e4b	-0.04310445
92	0xbe0a885d	-0.13528581
93	0x3d8a7fa4	0.06762627
94	0x3dd4a738	0.10383457
95	0xbd1d382e	-0.038383655
96	0xbe2b20ee	-0.1671178
97	0xbe9eb808	-0.3099978
98	0xbe49673d	-0.19668289
99	0xbf1ab6a6	-0.6043495
100	0xbda99ba9	-0.08281643
101	0xbd5141ea	-0.05108825
102	0x3d06838f	0.032840308
103	0xbdd2b38d	-0.10288153
104	0xbd6d33df	-0.057910796
105	0xbdaf979b	-0.08573838
106	0xbeae0e43	-0.33995256
107	0xbdfbde22	-0.12298228
108	0x3caf8e0b	0.021430036
109	0xbde456fe	-0.11149405
110	0xbe9e79ed	-0.30952397
111	0xbcbcc729	-0.023044186
112	0xbb3468ec	-0.0027528359
113	0xbd09da5a	-0.033655502
114	0x3cc4d176	0.02402566
115	0x3dbd43bd	0.09241436
116	0xbd62ab4a	-0.055339135
117	0xbd9b1b5f	-0.0757358
118	0x3d12b485	0.035816688
119	0x3cb6b844	0.022304662
120	0xbdbab964	-0.09117392
121	0xbb53d138	-0.003232075
122	0x3dd2d8c9	0.10295255
123	0xbd1aeb26	-0.03782191
124	0xbe673006	-0.22576913
125	0xbdfbd6e1	-0.12296844
126	0x3dec410c	0.11535844
127	0x3d3d5750	0.046225846
128	0x3dce5b5c	0.10076019
129	0xbd14d218	-0.036333174
130	0x3d9cec9d	0.07662318
131	0x3d76ec87	0.060284164
132	0xbd3c7e40	-0.04601884
133	0x3da4d901	0.08049203
134	0x3e4b39a4	0.19846207
135	0x3ba66ab8	0.00507864
136	0xbd0d6df4	-0.034528688
137	0xbded1f23	-0.115782045
138	0xbc82b94d	-0.015957499
139	0x3e4802b1	0.19532277
140	0x3da6f7a6	0.08152704
141	0xbdacccb9	-0.08437485
142	0x3cb418b0	0.021984428
143	0x3dc72b76	0.097250864
144	0x3cca3c08	0.024686828
145	0xbd49bd2f	-0.049252685
146	0xbd2a26f8	-0.04154107
147	0xbcf72be7	-0.030172301
148	0x3d463651	0.048391644
149	0xbb6b394a	-0.0035892301
150	0x3dceeb4d	0.10103474
151	0x3d80b714	0.062849194
152	0x3d98a10c	0.07452592
153	0x3e1cde49	0.1531917
154	0x3d9f65cc	0.07783088
155	0x3d82726e	0.06369482
156	0xbda04f77	-0.07827657
157	0xbd3614ef	-0.044453558
158	0x3d60bcf3	0.054867696
159	0xbd367e57	-0.04455408
160	0xbe63b4be	-0.22236916
161	0x3c1a29cb	0.009409378
162	0x3df3ed59	0.11910505
163	0x3e83b418	0.25723338
164	0x3d582825	0.05277266
165	0xbdbb52bc	-0.0914664
166	0x3d8d16b5	0.06889097
167	0x3e435adb	0.19077627
168	0xbe183f41	-0.1486788
169	0xbe0d6421	-0.13807727
170	0xbcca5291	-0.024697574
171	0xbd0955fc	-0.033529267
172	0x3e210071	0.15722825
173	0x3e152d19	0.14567985
174	0x3e0c8cdc	0.13725609
175	0xbe7f1283	-0.24909405
176	0xbe1696ef	-0.14706014
177	0x3cb829a2	0.02248079
178	0xbb5cfcca	-0.003372001
179	0xbdaba4e6	-0.08381061
180	0xbde4bc94	-0.11168781
181	0x3da6097b	0.08107277
182	0xbda2eb99	-0.07955093
183	0x3dfd752b	0.12375864
184	0xbdb740ee	-0.08947931
185	0xbe25305f	-0.16131733
186	0xbedb469e	-0.42827314
187	0xbe270689	-0.16311087
188	0x3d3d0f01	0.046156887
189	0x3e578b16	0.21049151
190	0x3d97c336	0.074102804
191	0x3e6420de	0.22278163
192	0xbe15cbca	-0.1462852
193	0xbe25e8f3	-0.16202144
194	0x3c6ab863	0.014326188
195	0x3ce29154	0.027657188
196	0xbeca413c	-0.39502895
197	0xbdd738f8	-0.10508913
198	0x3d169baa	0.036769547
199	0x3e410de5	0.18852957
200	0x3d194661	0.037420634
201	0x3e372042	0.17883399
202	0xbd9783f4	-0.07398215
203	0x3e095db5	0.13414653
204	0x3d8bc117	0.06823938
205	0x3e37c59d	0.17946477
206	0x3d591378	0.052997082
207	0x3db28aba	0.08717866
208	0xbd4e0a67	-0.05030289
209	0x3e18d79e	0.14926001
210	0x3e13be2f	0.14428018
211	0x3e1498cf	0.14511417
212	0x3d872d0b	0.06600388
213	0x3e027860	0.12741232
214	0xbe5fc303	-0.21851735
215	0xbe10fc79	-0.1415881
216	0xbddf404c	-0.109009355
217	0xbea2bfb7	-0.31786892
218	0xbe95eecf	-0.2928376
219	0xbec583c6	-0.38577098
220	0xbd9ab31d	-0.075536944
221	0xbec692c0	-0.38783836
222	0xba131a97	-0.0005611567
223	0x3bab87ea	0.005234708
224	0x3c8be992	0.017079148
225	0x3db11c03	0.08647921
226	0x3c72747a	0.014798278
227	0x3cc176a9	0.023616152
228	0x3d644a62	0.055735
229	0x3dcb460f	0.09925472
230	0xbdfc9410	-0.12332928
231	0xbc5fad09	-0.013652095
232	0xbeb3e311	-0.35134175
233	0xbd99ffb9	-0.07519478
234	0x3e83e763	0.25762472
235	0xbd8dc008	-0.06921393
236	0x3e2b56fb	0.16732399
237	0x3e545b44	0.2073794
238	0x3e553794	0.20821983
239	0x3ec60d98	0.38682246
240	0x3d942b60	0.072348356
241	0x3cb4a192	0.022049699
242	0xbe0318e2	-0.12802461
243	0xbe722794	-0.2364791
244	0xbdccbc04	-0.09996799
245	0x3c779b5f	0.015112727
246	0x3c4c8d2f	0.012484833
247	0xbd38f8af	-0.04515904
248	0xbdee6211	-0.116397984
249	0x3e08f007	0.13372813
250	0x3c1057d3	0.008810001
251	0x3e43e076	0.19128594
252	0xbe3596ec	-0.17733353
253	0xbe92a056	-0.28637952
254	0xbe76e27e	-0.24109837
255	0xbe39ecec	-0.18156785

fc.bias f4 [10]
0	0xbe787cb9	-0.24266328
1	0x3d1bf7b7	0.038078036
2	0xbcc34fe6	-0.02384181
3	0x3e53f7d5	0.20700009
4	0x3e0cbb69	0.13743366
5	0xbd9b6936	-0.07588427
6	0x3e8ff976	0.2812001
7	0xbe611cc6	-0.21983632
8	0x3d5b2a34	0.053507045
9	0xbdd98b38	-0.10622257
